node {
  name: "firstConv2D_input"
  op: "Placeholder"
  attr {
    key: "dtype"
    value {
      type: DT_FLOAT
    }
  }
  attr {
    key: "shape"
    value {
      shape {
        dim {
          size: -1
        }
        dim {
          size: 80
        }
        dim {
          size: 80
        }
        dim {
          size: 3
        }
      }
    }
  }
}
node {
  name: "firstConv2D/random_uniform/shape"
  op: "Const"
  attr {
    key: "dtype"
    value {
      type: DT_INT32
    }
  }
  attr {
    key: "value"
    value {
      tensor {
        dtype: DT_INT32
        tensor_shape {
          dim {
            size: 4
          }
        }
        tensor_content: "\002\000\000\000\002\000\000\000\003\000\000\000 \000\000\000"
      }
    }
  }
}
node {
  name: "firstConv2D/random_uniform/min"
  op: "Const"
  attr {
    key: "dtype"
    value {
      type: DT_FLOAT
    }
  }
  attr {
    key: "value"
    value {
      tensor {
        dtype: DT_FLOAT
        tensor_shape {
        }
        float_val: -0.20701967179775238
      }
    }
  }
}
node {
  name: "firstConv2D/random_uniform/max"
  op: "Const"
  attr {
    key: "dtype"
    value {
      type: DT_FLOAT
    }
  }
  attr {
    key: "value"
    value {
      tensor {
        dtype: DT_FLOAT
        tensor_shape {
        }
        float_val: 0.20701967179775238
      }
    }
  }
}
node {
  name: "firstConv2D/random_uniform/RandomUniform"
  op: "RandomUniform"
  input: "firstConv2D/random_uniform/shape"
  attr {
    key: "T"
    value {
      type: DT_INT32
    }
  }
  attr {
    key: "dtype"
    value {
      type: DT_FLOAT
    }
  }
  attr {
    key: "seed"
    value {
      i: 87654321
    }
  }
  attr {
    key: "seed2"
    value {
      i: 9260309
    }
  }
}
node {
  name: "firstConv2D/random_uniform/sub"
  op: "Sub"
  input: "firstConv2D/random_uniform/max"
  input: "firstConv2D/random_uniform/min"
  attr {
    key: "T"
    value {
      type: DT_FLOAT
    }
  }
}
node {
  name: "firstConv2D/random_uniform/mul"
  op: "Mul"
  input: "firstConv2D/random_uniform/RandomUniform"
  input: "firstConv2D/random_uniform/sub"
  attr {
    key: "T"
    value {
      type: DT_FLOAT
    }
  }
}
node {
  name: "firstConv2D/random_uniform"
  op: "Add"
  input: "firstConv2D/random_uniform/mul"
  input: "firstConv2D/random_uniform/min"
  attr {
    key: "T"
    value {
      type: DT_FLOAT
    }
  }
}
node {
  name: "firstConv2D/kernel"
  op: "VariableV2"
  attr {
    key: "container"
    value {
      s: ""
    }
  }
  attr {
    key: "dtype"
    value {
      type: DT_FLOAT
    }
  }
  attr {
    key: "shape"
    value {
      shape {
        dim {
          size: 2
        }
        dim {
          size: 2
        }
        dim {
          size: 3
        }
        dim {
          size: 32
        }
      }
    }
  }
  attr {
    key: "shared_name"
    value {
      s: ""
    }
  }
}
node {
  name: "firstConv2D/kernel/Assign"
  op: "Assign"
  input: "firstConv2D/kernel"
  input: "firstConv2D/random_uniform"
  attr {
    key: "T"
    value {
      type: DT_FLOAT
    }
  }
  attr {
    key: "_class"
    value {
      list {
        s: "loc:@firstConv2D/kernel"
      }
    }
  }
  attr {
    key: "use_locking"
    value {
      b: true
    }
  }
  attr {
    key: "validate_shape"
    value {
      b: true
    }
  }
}
node {
  name: "firstConv2D/kernel/read"
  op: "Identity"
  input: "firstConv2D/kernel"
  attr {
    key: "T"
    value {
      type: DT_FLOAT
    }
  }
  attr {
    key: "_class"
    value {
      list {
        s: "loc:@firstConv2D/kernel"
      }
    }
  }
}
node {
  name: "firstConv2D/Const"
  op: "Const"
  attr {
    key: "dtype"
    value {
      type: DT_FLOAT
    }
  }
  attr {
    key: "value"
    value {
      tensor {
        dtype: DT_FLOAT
        tensor_shape {
          dim {
            size: 32
          }
        }
        float_val: 0.0
      }
    }
  }
}
node {
  name: "firstConv2D/bias"
  op: "VariableV2"
  attr {
    key: "container"
    value {
      s: ""
    }
  }
  attr {
    key: "dtype"
    value {
      type: DT_FLOAT
    }
  }
  attr {
    key: "shape"
    value {
      shape {
        dim {
          size: 32
        }
      }
    }
  }
  attr {
    key: "shared_name"
    value {
      s: ""
    }
  }
}
node {
  name: "firstConv2D/bias/Assign"
  op: "Assign"
  input: "firstConv2D/bias"
  input: "firstConv2D/Const"
  attr {
    key: "T"
    value {
      type: DT_FLOAT
    }
  }
  attr {
    key: "_class"
    value {
      list {
        s: "loc:@firstConv2D/bias"
      }
    }
  }
  attr {
    key: "use_locking"
    value {
      b: true
    }
  }
  attr {
    key: "validate_shape"
    value {
      b: true
    }
  }
}
node {
  name: "firstConv2D/bias/read"
  op: "Identity"
  input: "firstConv2D/bias"
  attr {
    key: "T"
    value {
      type: DT_FLOAT
    }
  }
  attr {
    key: "_class"
    value {
      list {
        s: "loc:@firstConv2D/bias"
      }
    }
  }
}
node {
  name: "firstConv2D/convolution/dilation_rate"
  op: "Const"
  attr {
    key: "dtype"
    value {
      type: DT_INT32
    }
  }
  attr {
    key: "value"
    value {
      tensor {
        dtype: DT_INT32
        tensor_shape {
          dim {
            size: 2
          }
        }
        tensor_content: "\001\000\000\000\001\000\000\000"
      }
    }
  }
}
node {
  name: "firstConv2D/convolution"
  op: "Conv2D"
  input: "firstConv2D_input"
  input: "firstConv2D/kernel/read"
  attr {
    key: "T"
    value {
      type: DT_FLOAT
    }
  }
  attr {
    key: "data_format"
    value {
      s: "NHWC"
    }
  }
  attr {
    key: "dilations"
    value {
      list {
        i: 1
        i: 1
        i: 1
        i: 1
      }
    }
  }
  attr {
    key: "padding"
    value {
      s: "SAME"
    }
  }
  attr {
    key: "strides"
    value {
      list {
        i: 1
        i: 1
        i: 1
        i: 1
      }
    }
  }
  attr {
    key: "use_cudnn_on_gpu"
    value {
      b: true
    }
  }
}
node {
  name: "firstConv2D/BiasAdd"
  op: "BiasAdd"
  input: "firstConv2D/convolution"
  input: "firstConv2D/bias/read"
  attr {
    key: "T"
    value {
      type: DT_FLOAT
    }
  }
  attr {
    key: "data_format"
    value {
      s: "NHWC"
    }
  }
}
node {
  name: "firstConv2D/Relu"
  op: "Relu"
  input: "firstConv2D/BiasAdd"
  attr {
    key: "T"
    value {
      type: DT_FLOAT
    }
  }
}
node {
  name: "firstMaxPool/MaxPool"
  op: "MaxPool"
  input: "firstConv2D/Relu"
  attr {
    key: "T"
    value {
      type: DT_FLOAT
    }
  }
  attr {
    key: "data_format"
    value {
      s: "NHWC"
    }
  }
  attr {
    key: "ksize"
    value {
      list {
        i: 1
        i: 2
        i: 2
        i: 1
      }
    }
  }
  attr {
    key: "padding"
    value {
      s: "VALID"
    }
  }
  attr {
    key: "strides"
    value {
      list {
        i: 1
        i: 2
        i: 2
        i: 1
      }
    }
  }
}
node {
  name: "zero_padding2d_1/Pad/paddings"
  op: "Const"
  attr {
    key: "dtype"
    value {
      type: DT_INT32
    }
  }
  attr {
    key: "value"
    value {
      tensor {
        dtype: DT_INT32
        tensor_shape {
          dim {
            size: 4
          }
          dim {
            size: 2
          }
        }
        tensor_content: "…"
      }
    }
  }
}
node {
  name: "zero_padding2d_1/Pad"
  op: "Pad"
  input: "firstMaxPool/MaxPool"
  input: "zero_padding2d_1/Pad/paddings"
  attr {
    key: "T"
    value {
      type: DT_FLOAT
    }
  }
  attr {
    key: "Tpaddings"
    value {
      type: DT_INT32
    }
  }
}
node {
  name: "secondConv2D/random_uniform/shape"
  op: "Const"
  attr {
    key: "dtype"
    value {
      type: DT_INT32
    }
  }
  attr {
    key: "value"
    value {
      tensor {
        dtype: DT_INT32
        tensor_shape {
          dim {
            size: 4
          }
        }
        tensor_content: "\002\000\000\000\002\000\000\000 \000\000\000\020\000\000\000"
      }
    }
  }
}
node {
  name: "secondConv2D/random_uniform/min"
  op: "Const"
  attr {
    key: "dtype"
    value {
      type: DT_FLOAT
    }
  }
  attr {
    key: "value"
    value {
      tensor {
        dtype: DT_FLOAT
        tensor_shape {
        }
        float_val: -0.1767766922712326
      }
    }
  }
}
node {
  name: "secondConv2D/random_uniform/max"
  op: "Const"
  attr {
    key: "dtype"
    value {
      type: DT_FLOAT
    }
  }
  attr {
    key: "value"
    value {
      tensor {
        dtype: DT_FLOAT
        tensor_shape {
        }
        float_val: 0.1767766922712326
      }
    }
  }
}
node {
  name: "secondConv2D/random_uniform/RandomUniform"
  op: "RandomUniform"
  input: "secondConv2D/random_uniform/shape"
  attr {
    key: "T"
    value {
      type: DT_INT32
    }
  }
  attr {
    key: "dtype"
    value {
      type: DT_FLOAT
    }
  }
  attr {
    key: "seed"
    value {
      i: 87654321
    }
  }
  attr {
    key: "seed2"
    value {
      i: 1179844
    }
  }
}
node {
  name: "secondConv2D/random_uniform/sub"
  op: "Sub"
  input: "secondConv2D/random_uniform/max"
  input: "secondConv2D/random_uniform/min"
  attr {
    key: "T"
    value {
      type: DT_FLOAT
    }
  }
}
node {
  name: "secondConv2D/random_uniform/mul"
  op: "Mul"
  input: "secondConv2D/random_uniform/RandomUniform"
  input: "secondConv2D/random_uniform/sub"
  attr {
    key: "T"
    value {
      type: DT_FLOAT
    }
  }
}
node {
  name: "secondConv2D/random_uniform"
  op: "Add"
  input: "secondConv2D/random_uniform/mul"
  input: "secondConv2D/random_uniform/min"
  attr {
    key: "T"
    value {
      type: DT_FLOAT
    }
  }
}
node {
  name: "secondConv2D/kernel"
  op: "VariableV2"
  attr {
    key: "container"
    value {
      s: ""
    }
  }
  attr {
    key: "dtype"
    value {
      type: DT_FLOAT
    }
  }
  attr {
    key: "shape"
    value {
      shape {
        dim {
          size: 2
        }
        dim {
          size: 2
        }
        dim {
          size: 32
        }
        dim {
          size: 16
        }
      }
    }
  }
  attr {
    key: "shared_name"
    value {
      s: ""
    }
  }
}
node {
  name: "secondConv2D/kernel/Assign"
  op: "Assign"
  input: "secondConv2D/kernel"
  input: "secondConv2D/random_uniform"
  attr {
    key: "T"
    value {
      type: DT_FLOAT
    }
  }
  attr {
    key: "_class"
    value {
      list {
        s: "loc:@secondConv2D/kernel"
      }
    }
  }
  attr {
    key: "use_locking"
    value {
      b: true
    }
  }
  attr {
    key: "validate_shape"
    value {
      b: true
    }
  }
}
node {
  name: "secondConv2D/kernel/read"
  op: "Identity"
  input: "secondConv2D/kernel"
  attr {
    key: "T"
    value {
      type: DT_FLOAT
    }
  }
  attr {
    key: "_class"
    value {
      list {
        s: "loc:@secondConv2D/kernel"
      }
    }
  }
}
node {
  name: "secondConv2D/Const"
  op: "Const"
  attr {
    key: "dtype"
    value {
      type: DT_FLOAT
    }
  }
  attr {
    key: "value"
    value {
      tensor {
        dtype: DT_FLOAT
        tensor_shape {
          dim {
            size: 16
          }
        }
        float_val: 0.0
      }
    }
  }
}
node {
  name: "secondConv2D/bias"
  op: "VariableV2"
  attr {
    key: "container"
    value {
      s: ""
    }
  }
  attr {
    key: "dtype"
    value {
      type: DT_FLOAT
    }
  }
  attr {
    key: "shape"
    value {
      shape {
        dim {
          size: 16
        }
      }
    }
  }
  attr {
    key: "shared_name"
    value {
      s: ""
    }
  }
}
node {
  name: "secondConv2D/bias/Assign"
  op: "Assign"
  input: "secondConv2D/bias"
  input: "secondConv2D/Const"
  attr {
    key: "T"
    value {
      type: DT_FLOAT
    }
  }
  attr {
    key: "_class"
    value {
      list {
        s: "loc:@secondConv2D/bias"
      }
    }
  }
  attr {
    key: "use_locking"
    value {
      b: true
    }
  }
  attr {
    key: "validate_shape"
    value {
      b: true
    }
  }
}
node {
  name: "secondConv2D/bias/read"
  op: "Identity"
  input: "secondConv2D/bias"
  attr {
    key: "T"
    value {
      type: DT_FLOAT
    }
  }
  attr {
    key: "_class"
    value {
      list {
        s: "loc:@secondConv2D/bias"
      }
    }
  }
}
node {
  name: "secondConv2D/convolution/dilation_rate"
  op: "Const"
  attr {
    key: "dtype"
    value {
      type: DT_INT32
    }
  }
  attr {
    key: "value"
    value {
      tensor {
        dtype: DT_INT32
        tensor_shape {
          dim {
            size: 2
          }
        }
        tensor_content: "\001\000\000\000\001\000\000\000"
      }
    }
  }
}
node {
  name: "secondConv2D/convolution"
  op: "Conv2D"
  input: "zero_padding2d_1/Pad"
  input: "secondConv2D/kernel/read"
  attr {
    key: "T"
    value {
      type: DT_FLOAT
    }
  }
  attr {
    key: "data_format"
    value {
      s: "NHWC"
    }
  }
  attr {
    key: "dilations"
    value {
      list {
        i: 1
        i: 1
        i: 1
        i: 1
      }
    }
  }
  attr {
    key: "padding"
    value {
      s: "VALID"
    }
  }
  attr {
    key: "strides"
    value {
      list {
        i: 1
        i: 1
        i: 1
        i: 1
      }
    }
  }
  attr {
    key: "use_cudnn_on_gpu"
    value {
      b: true
    }
  }
}
node {
  name: "secondConv2D/BiasAdd"
  op: "BiasAdd"
  input: "secondConv2D/convolution"
  input: "secondConv2D/bias/read"
  attr {
    key: "T"
    value {
      type: DT_FLOAT
    }
  }
  attr {
    key: "data_format"
    value {
      s: "NHWC"
    }
  }
}
node {
  name: "secondConv2D/Relu"
  op: "Relu"
  input: "secondConv2D/BiasAdd"
  attr {
    key: "T"
    value {
      type: DT_FLOAT
    }
  }
}
node {
  name: "secondMaxPool/MaxPool"
  op: "MaxPool"
  input: "secondConv2D/Relu"
  attr {
    key: "T"
    value {
      type: DT_FLOAT
    }
  }
  attr {
    key: "data_format"
    value {
      s: "NHWC"
    }
  }
  attr {
    key: "ksize"
    value {
      list {
        i: 1
        i: 2
        i: 2
        i: 1
      }
    }
  }
  attr {
    key: "padding"
    value {
      s: "VALID"
    }
  }
  attr {
    key: "strides"
    value {
      list {
        i: 1
        i: 2
        i: 2
        i: 1
      }
    }
  }
}
node {
  name: "zero_padding2d_2/Pad/paddings"
  op: "Const"
  attr {
    key: "dtype"
    value {
      type: DT_INT32
    }
  }
  attr {
    key: "value"
    value {
      tensor {
        dtype: DT_INT32
        tensor_shape {
          dim {
            size: 4
          }
          dim {
            size: 2
          }
        }
        tensor_content: "…"
      }
    }
  }
}
node {
  name: "zero_padding2d_2/Pad"
  op: "Pad"
  input: "secondMaxPool/MaxPool"
  input: "zero_padding2d_2/Pad/paddings"
  attr {
    key: "T"
    value {
      type: DT_FLOAT
    }
  }
  attr {
    key: "Tpaddings"
    value {
      type: DT_INT32
    }
  }
}
node {
  name: "thirdc2/random_uniform/shape"
  op: "Const"
  attr {
    key: "dtype"
    value {
      type: DT_INT32
    }
  }
  attr {
    key: "value"
    value {
      tensor {
        dtype: DT_INT32
        tensor_shape {
          dim {
            size: 4
          }
        }
        tensor_content: "\002\000\000\000\002\000\000\000\020\000\000\000\010\000\000\000"
      }
    }
  }
}
node {
  name: "thirdc2/random_uniform/min"
  op: "Const"
  attr {
    key: "dtype"
    value {
      type: DT_FLOAT
    }
  }
  attr {
    key: "value"
    value {
      tensor {
        dtype: DT_FLOAT
        tensor_shape {
        }
        float_val: -0.25
      }
    }
  }
}
node {
  name: "thirdc2/random_uniform/max"
  op: "Const"
  attr {
    key: "dtype"
    value {
      type: DT_FLOAT
    }
  }
  attr {
    key: "value"
    value {
      tensor {
        dtype: DT_FLOAT
        tensor_shape {
        }
        float_val: 0.25
      }
    }
  }
}
node {
  name: "thirdc2/random_uniform/RandomUniform"
  op: "RandomUniform"
  input: "thirdc2/random_uniform/shape"
  attr {
    key: "T"
    value {
      type: DT_INT32
    }
  }
  attr {
    key: "dtype"
    value {
      type: DT_FLOAT
    }
  }
  attr {
    key: "seed"
    value {
      i: 87654321
    }
  }
  attr {
    key: "seed2"
    value {
      i: 9227827
    }
  }
}
node {
  name: "thirdc2/random_uniform/sub"
  op: "Sub"
  input: "thirdc2/random_uniform/max"
  input: "thirdc2/random_uniform/min"
  attr {
    key: "T"
    value {
      type: DT_FLOAT
    }
  }
}
node {
  name: "thirdc2/random_uniform/mul"
  op: "Mul"
  input: "thirdc2/random_uniform/RandomUniform"
  input: "thirdc2/random_uniform/sub"
  attr {
    key: "T"
    value {
      type: DT_FLOAT
    }
  }
}
node {
  name: "thirdc2/random_uniform"
  op: "Add"
  input: "thirdc2/random_uniform/mul"
  input: "thirdc2/random_uniform/min"
  attr {
    key: "T"
    value {
      type: DT_FLOAT
    }
  }
}
node {
  name: "thirdc2/kernel"
  op: "VariableV2"
  attr {
    key: "container"
    value {
      s: ""
    }
  }
  attr {
    key: "dtype"
    value {
      type: DT_FLOAT
    }
  }
  attr {
    key: "shape"
    value {
      shape {
        dim {
          size: 2
        }
        dim {
          size: 2
        }
        dim {
          size: 16
        }
        dim {
          size: 8
        }
      }
    }
  }
  attr {
    key: "shared_name"
    value {
      s: ""
    }
  }
}
node {
  name: "thirdc2/kernel/Assign"
  op: "Assign"
  input: "thirdc2/kernel"
  input: "thirdc2/random_uniform"
  attr {
    key: "T"
    value {
      type: DT_FLOAT
    }
  }
  attr {
    key: "_class"
    value {
      list {
        s: "loc:@thirdc2/kernel"
      }
    }
  }
  attr {
    key: "use_locking"
    value {
      b: true
    }
  }
  attr {
    key: "validate_shape"
    value {
      b: true
    }
  }
}
node {
  name: "thirdc2/kernel/read"
  op: "Identity"
  input: "thirdc2/kernel"
  attr {
    key: "T"
    value {
      type: DT_FLOAT
    }
  }
  attr {
    key: "_class"
    value {
      list {
        s: "loc:@thirdc2/kernel"
      }
    }
  }
}
node {
  name: "thirdc2/Const"
  op: "Const"
  attr {
    key: "dtype"
    value {
      type: DT_FLOAT
    }
  }
  attr {
    key: "value"
    value {
      tensor {
        dtype: DT_FLOAT
        tensor_shape {
          dim {
            size: 8
          }
        }
        float_val: 0.0
      }
    }
  }
}
node {
  name: "thirdc2/bias"
  op: "VariableV2"
  attr {
    key: "container"
    value {
      s: ""
    }
  }
  attr {
    key: "dtype"
    value {
      type: DT_FLOAT
    }
  }
  attr {
    key: "shape"
    value {
      shape {
        dim {
          size: 8
        }
      }
    }
  }
  attr {
    key: "shared_name"
    value {
      s: ""
    }
  }
}
node {
  name: "thirdc2/bias/Assign"
  op: "Assign"
  input: "thirdc2/bias"
  input: "thirdc2/Const"
  attr {
    key: "T"
    value {
      type: DT_FLOAT
    }
  }
  attr {
    key: "_class"
    value {
      list {
        s: "loc:@thirdc2/bias"
      }
    }
  }
  attr {
    key: "use_locking"
    value {
      b: true
    }
  }
  attr {
    key: "validate_shape"
    value {
      b: true
    }
  }
}
node {
  name: "thirdc2/bias/read"
  op: "Identity"
  input: "thirdc2/bias"
  attr {
    key: "T"
    value {
      type: DT_FLOAT
    }
  }
  attr {
    key: "_class"
    value {
      list {
        s: "loc:@thirdc2/bias"
      }
    }
  }
}
node {
  name: "thirdc2/convolution/dilation_rate"
  op: "Const"
  attr {
    key: "dtype"
    value {
      type: DT_INT32
    }
  }
  attr {
    key: "value"
    value {
      tensor {
        dtype: DT_INT32
        tensor_shape {
          dim {
            size: 2
          }
        }
        tensor_content: "\001\000\000\000\001\000\000\000"
      }
    }
  }
}
node {
  name: "thirdc2/convolution"
  op: "Conv2D"
  input: "zero_padding2d_2/Pad"
  input: "thirdc2/kernel/read"
  attr {
    key: "T"
    value {
      type: DT_FLOAT
    }
  }
  attr {
    key: "data_format"
    value {
      s: "NHWC"
    }
  }
  attr {
    key: "dilations"
    value {
      list {
        i: 1
        i: 1
        i: 1
        i: 1
      }
    }
  }
  attr {
    key: "padding"
    value {
      s: "VALID"
    }
  }
  attr {
    key: "strides"
    value {
      list {
        i: 1
        i: 1
        i: 1
        i: 1
      }
    }
  }
  attr {
    key: "use_cudnn_on_gpu"
    value {
      b: true
    }
  }
}
node {
  name: "thirdc2/BiasAdd"
  op: "BiasAdd"
  input: "thirdc2/convolution"
  input: "thirdc2/bias/read"
  attr {
    key: "T"
    value {
      type: DT_FLOAT
    }
  }
  attr {
    key: "data_format"
    value {
      s: "NHWC"
    }
  }
}
node {
  name: "thirdc2/Relu"
  op: "Relu"
  input: "thirdc2/BiasAdd"
  attr {
    key: "T"
    value {
      type: DT_FLOAT
    }
  }
}
node {
  name: "thirdpool/MaxPool"
  op: "MaxPool"
  input: "thirdc2/Relu"
  attr {
    key: "T"
    value {
      type: DT_FLOAT
    }
  }
  attr {
    key: "data_format"
    value {
      s: "NHWC"
    }
  }
  attr {
    key: "ksize"
    value {
      list {
        i: 1
        i: 2
        i: 2
        i: 1
      }
    }
  }
  attr {
    key: "padding"
    value {
      s: "VALID"
    }
  }
  attr {
    key: "strides"
    value {
      list {
        i: 1
        i: 2
        i: 2
        i: 1
      }
    }
  }
}
node {
  name: "flat/Shape"
  op: "Shape"
  input: "thirdpool/MaxPool"
  attr {
    key: "T"
    value {
      type: DT_FLOAT
    }
  }
  attr {
    key: "out_type"
    value {
      type: DT_INT32
    }
  }
}
node {
  name: "flat/strided_slice/stack"
  op: "Const"
  attr {
    key: "dtype"
    value {
      type: DT_INT32
    }
  }
  attr {
    key: "value"
    value {
      tensor {
        dtype: DT_INT32
        tensor_shape {
          dim {
            size: 1
          }
        }
        int_val: 1
      }
    }
  }
}
node {
  name: "flat/strided_slice/stack_1"
  op: "Const"
  attr {
    key: "dtype"
    value {
      type: DT_INT32
    }
  }
  attr {
    key: "value"
    value {
      tensor {
        dtype: DT_INT32
        tensor_shape {
          dim {
            size: 1
          }
        }
        int_val: 0
      }
    }
  }
}
node {
  name: "flat/strided_slice/stack_2"
  op: "Const"
  attr {
    key: "dtype"
    value {
      type: DT_INT32
    }
  }
  attr {
    key: "value"
    value {
      tensor {
        dtype: DT_INT32
        tensor_shape {
          dim {
            size: 1
          }
        }
        int_val: 1
      }
    }
  }
}
node {
  name: "flat/strided_slice"
  op: "StridedSlice"
  input: "flat/Shape"
  input: "flat/strided_slice/stack"
  input: "flat/strided_slice/stack_1"
  input: "flat/strided_slice/stack_2"
  attr {
    key: "Index"
    value {
      type: DT_INT32
    }
  }
  attr {
    key: "T"
    value {
      type: DT_INT32
    }
  }
  attr {
    key: "begin_mask"
    value {
      i: 0
    }
  }
  attr {
    key: "ellipsis_mask"
    value {
      i: 0
    }
  }
  attr {
    key: "end_mask"
    value {
      i: 1
    }
  }
  attr {
    key: "new_axis_mask"
    value {
      i: 0
    }
  }
  attr {
    key: "shrink_axis_mask"
    value {
      i: 0
    }
  }
}
node {
  name: "flat/Const"
  op: "Const"
  attr {
    key: "dtype"
    value {
      type: DT_INT32
    }
  }
  attr {
    key: "value"
    value {
      tensor {
        dtype: DT_INT32
        tensor_shape {
          dim {
            size: 1
          }
        }
        int_val: 0
      }
    }
  }
}
node {
  name: "flat/Prod"
  op: "Prod"
  input: "flat/strided_slice"
  input: "flat/Const"
  attr {
    key: "T"
    value {
      type: DT_INT32
    }
  }
  attr {
    key: "Tidx"
    value {
      type: DT_INT32
    }
  }
  attr {
    key: "keep_dims"
    value {
      b: false
    }
  }
}
node {
  name: "flat/stack/0"
  op: "Const"
  attr {
    key: "dtype"
    value {
      type: DT_INT32
    }
  }
  attr {
    key: "value"
    value {
      tensor {
        dtype: DT_INT32
        tensor_shape {
        }
        int_val: -1
      }
    }
  }
}
node {
  name: "flat/stack"
  op: "Pack"
  input: "flat/stack/0"
  input: "flat/Prod"
  attr {
    key: "N"
    value {
      i: 2
    }
  }
  attr {
    key: "T"
    value {
      type: DT_INT32
    }
  }
  attr {
    key: "axis"
    value {
      i: 0
    }
  }
}
node {
  name: "flat/Reshape"
  op: "Reshape"
  input: "thirdpool/MaxPool"
  input: "flat/stack"
  attr {
    key: "T"
    value {
      type: DT_FLOAT
    }
  }
  attr {
    key: "Tshape"
    value {
      type: DT_INT32
    }
  }
}
node {
  name: "fc256/random_uniform/shape"
  op: "Const"
  attr {
    key: "dtype"
    value {
      type: DT_INT32
    }
  }
  attr {
    key: "value"
    value {
      tensor {
        dtype: DT_INT32
        tensor_shape {
          dim {
            size: 2
          }
        }
        tensor_content: "\200\004\000\000\000\001\000\000"
      }
    }
  }
}
node {
  name: "fc256/random_uniform/min"
  op: "Const"
  attr {
    key: "dtype"
    value {
      type: DT_FLOAT
    }
  }
  attr {
    key: "value"
    value {
      tensor {
        dtype: DT_FLOAT
        tensor_shape {
        }
        float_val: -0.06527911871671677
      }
    }
  }
}
node {
  name: "fc256/random_uniform/max"
  op: "Const"
  attr {
    key: "dtype"
    value {
      type: DT_FLOAT
    }
  }
  attr {
    key: "value"
    value {
      tensor {
        dtype: DT_FLOAT
        tensor_shape {
        }
        float_val: 0.06527911871671677
      }
    }
  }
}
node {
  name: "fc256/random_uniform/RandomUniform"
  op: "RandomUniform"
  input: "fc256/random_uniform/shape"
  attr {
    key: "T"
    value {
      type: DT_INT32
    }
  }
  attr {
    key: "dtype"
    value {
      type: DT_FLOAT
    }
  }
  attr {
    key: "seed"
    value {
      i: 87654321
    }
  }
  attr {
    key: "seed2"
    value {
      i: 1107876
    }
  }
}
node {
  name: "fc256/random_uniform/sub"
  op: "Sub"
  input: "fc256/random_uniform/max"
  input: "fc256/random_uniform/min"
  attr {
    key: "T"
    value {
      type: DT_FLOAT
    }
  }
}
node {
  name: "fc256/random_uniform/mul"
  op: "Mul"
  input: "fc256/random_uniform/RandomUniform"
  input: "fc256/random_uniform/sub"
  attr {
    key: "T"
    value {
      type: DT_FLOAT
    }
  }
}
node {
  name: "fc256/random_uniform"
  op: "Add"
  input: "fc256/random_uniform/mul"
  input: "fc256/random_uniform/min"
  attr {
    key: "T"
    value {
      type: DT_FLOAT
    }
  }
}
node {
  name: "fc256/kernel"
  op: "VariableV2"
  attr {
    key: "container"
    value {
      s: ""
    }
  }
  attr {
    key: "dtype"
    value {
      type: DT_FLOAT
    }
  }
  attr {
    key: "shape"
    value {
      shape {
        dim {
          size: 1152
        }
        dim {
          size: 256
        }
      }
    }
  }
  attr {
    key: "shared_name"
    value {
      s: ""
    }
  }
}
node {
  name: "fc256/kernel/Assign"
  op: "Assign"
  input: "fc256/kernel"
  input: "fc256/random_uniform"
  attr {
    key: "T"
    value {
      type: DT_FLOAT
    }
  }
  attr {
    key: "_class"
    value {
      list {
        s: "loc:@fc256/kernel"
      }
    }
  }
  attr {
    key: "use_locking"
    value {
      b: true
    }
  }
  attr {
    key: "validate_shape"
    value {
      b: true
    }
  }
}
node {
  name: "fc256/kernel/read"
  op: "Identity"
  input: "fc256/kernel"
  attr {
    key: "T"
    value {
      type: DT_FLOAT
    }
  }
  attr {
    key: "_class"
    value {
      list {
        s: "loc:@fc256/kernel"
      }
    }
  }
}
node {
  name: "fc256/Const"
  op: "Const"
  attr {
    key: "dtype"
    value {
      type: DT_FLOAT
    }
  }
  attr {
    key: "value"
    value {
      tensor {
        dtype: DT_FLOAT
        tensor_shape {
          dim {
            size: 256
          }
        }
        float_val: 0.0
      }
    }
  }
}
node {
  name: "fc256/bias"
  op: "VariableV2"
  attr {
    key: "container"
    value {
      s: ""
    }
  }
  attr {
    key: "dtype"
    value {
      type: DT_FLOAT
    }
  }
  attr {
    key: "shape"
    value {
      shape {
        dim {
          size: 256
        }
      }
    }
  }
  attr {
    key: "shared_name"
    value {
      s: ""
    }
  }
}
node {
  name: "fc256/bias/Assign"
  op: "Assign"
  input: "fc256/bias"
  input: "fc256/Const"
  attr {
    key: "T"
    value {
      type: DT_FLOAT
    }
  }
  attr {
    key: "_class"
    value {
      list {
        s: "loc:@fc256/bias"
      }
    }
  }
  attr {
    key: "use_locking"
    value {
      b: true
    }
  }
  attr {
    key: "validate_shape"
    value {
      b: true
    }
  }
}
node {
  name: "fc256/bias/read"
  op: "Identity"
  input: "fc256/bias"
  attr {
    key: "T"
    value {
      type: DT_FLOAT
    }
  }
  attr {
    key: "_class"
    value {
      list {
        s: "loc:@fc256/bias"
      }
    }
  }
}
node {
  name: "fc256/MatMul"
  op: "MatMul"
  input: "flat/Reshape"
  input: "fc256/kernel/read"
  attr {
    key: "T"
    value {
      type: DT_FLOAT
    }
  }
  attr {
    key: "transpose_a"
    value {
      b: false
    }
  }
  attr {
    key: "transpose_b"
    value {
      b: false
    }
  }
}
node {
  name: "fc256/BiasAdd"
  op: "BiasAdd"
  input: "fc256/MatMul"
  input: "fc256/bias/read"
  attr {
    key: "T"
    value {
      type: DT_FLOAT
    }
  }
  attr {
    key: "data_format"
    value {
      s: "NHWC"
    }
  }
}
node {
  name: "fc256/Relu"
  op: "Relu"
  input: "fc256/BiasAdd"
  attr {
    key: "T"
    value {
      type: DT_FLOAT
    }
  }
}
node {
  name: "finalfc/random_uniform/shape"
  op: "Const"
  attr {
    key: "dtype"
    value {
      type: DT_INT32
    }
  }
  attr {
    key: "value"
    value {
      tensor {
        dtype: DT_INT32
        tensor_shape {
          dim {
            size: 2
          }
        }
        tensor_content: "\000\001\000\000\005\000\000\000"
      }
    }
  }
}
node {
  name: "finalfc/random_uniform/min"
  op: "Const"
  attr {
    key: "dtype"
    value {
      type: DT_FLOAT
    }
  }
  attr {
    key: "value"
    value {
      tensor {
        dtype: DT_FLOAT
        tensor_shape {
        }
        float_val: -0.15161961317062378
      }
    }
  }
}
node {
  name: "finalfc/random_uniform/max"
  op: "Const"
  attr {
    key: "dtype"
    value {
      type: DT_FLOAT
    }
  }
  attr {
    key: "value"
    value {
      tensor {
        dtype: DT_FLOAT
        tensor_shape {
        }
        float_val: 0.15161961317062378
      }
    }
  }
}
node {
  name: "finalfc/random_uniform/RandomUniform"
  op: "RandomUniform"
  input: "finalfc/random_uniform/shape"
  attr {
    key: "T"
    value {
      type: DT_INT32
    }
  }
  attr {
    key: "dtype"
    value {
      type: DT_FLOAT
    }
  }
  attr {
    key: "seed"
    value {
      i: 87654321
    }
  }
  attr {
    key: "seed2"
    value {
      i: 7409106
    }
  }
}
node {
  name: "finalfc/random_uniform/sub"
  op: "Sub"
  input: "finalfc/random_uniform/max"
  input: "finalfc/random_uniform/min"
  attr {
    key: "T"
    value {
      type: DT_FLOAT
    }
  }
}
node {
  name: "finalfc/random_uniform/mul"
  op: "Mul"
  input: "finalfc/random_uniform/RandomUniform"
  input: "finalfc/random_uniform/sub"
  attr {
    key: "T"
    value {
      type: DT_FLOAT
    }
  }
}
node {
  name: "finalfc/random_uniform"
  op: "Add"
  input: "finalfc/random_uniform/mul"
  input: "finalfc/random_uniform/min"
  attr {
    key: "T"
    value {
      type: DT_FLOAT
    }
  }
}
node {
  name: "finalfc/kernel"
  op: "VariableV2"
  attr {
    key: "container"
    value {
      s: ""
    }
  }
  attr {
    key: "dtype"
    value {
      type: DT_FLOAT
    }
  }
  attr {
    key: "shape"
    value {
      shape {
        dim {
          size: 256
        }
        dim {
          size: 5
        }
      }
    }
  }
  attr {
    key: "shared_name"
    value {
      s: ""
    }
  }
}
node {
  name: "finalfc/kernel/Assign"
  op: "Assign"
  input: "finalfc/kernel"
  input: "finalfc/random_uniform"
  attr {
    key: "T"
    value {
      type: DT_FLOAT
    }
  }
  attr {
    key: "_class"
    value {
      list {
        s: "loc:@finalfc/kernel"
      }
    }
  }
  attr {
    key: "use_locking"
    value {
      b: true
    }
  }
  attr {
    key: "validate_shape"
    value {
      b: true
    }
  }
}
node {
  name: "finalfc/kernel/read"
  op: "Identity"
  input: "finalfc/kernel"
  attr {
    key: "T"
    value {
      type: DT_FLOAT
    }
  }
  attr {
    key: "_class"
    value {
      list {
        s: "loc:@finalfc/kernel"
      }
    }
  }
}
node {
  name: "finalfc/Const"
  op: "Const"
  attr {
    key: "dtype"
    value {
      type: DT_FLOAT
    }
  }
  attr {
    key: "value"
    value {
      tensor {
        dtype: DT_FLOAT
        tensor_shape {
          dim {
            size: 5
          }
        }
        float_val: 0.0
      }
    }
  }
}
node {
  name: "finalfc/bias"
  op: "VariableV2"
  attr {
    key: "container"
    value {
      s: ""
    }
  }
  attr {
    key: "dtype"
    value {
      type: DT_FLOAT
    }
  }
  attr {
    key: "shape"
    value {
      shape {
        dim {
          size: 5
        }
      }
    }
  }
  attr {
    key: "shared_name"
    value {
      s: ""
    }
  }
}
node {
  name: "finalfc/bias/Assign"
  op: "Assign"
  input: "finalfc/bias"
  input: "finalfc/Const"
  attr {
    key: "T"
    value {
      type: DT_FLOAT
    }
  }
  attr {
    key: "_class"
    value {
      list {
        s: "loc:@finalfc/bias"
      }
    }
  }
  attr {
    key: "use_locking"
    value {
      b: true
    }
  }
  attr {
    key: "validate_shape"
    value {
      b: true
    }
  }
}
node {
  name: "finalfc/bias/read"
  op: "Identity"
  input: "finalfc/bias"
  attr {
    key: "T"
    value {
      type: DT_FLOAT
    }
  }
  attr {
    key: "_class"
    value {
      list {
        s: "loc:@finalfc/bias"
      }
    }
  }
}
node {
  name: "finalfc/MatMul"
  op: "MatMul"
  input: "fc256/Relu"
  input: "finalfc/kernel/read"
  attr {
    key: "T"
    value {
      type: DT_FLOAT
    }
  }
  attr {
    key: "transpose_a"
    value {
      b: false
    }
  }
  attr {
    key: "transpose_b"
    value {
      b: false
    }
  }
}
node {
  name: "finalfc/BiasAdd"
  op: "BiasAdd"
  input: "finalfc/MatMul"
  input: "finalfc/bias/read"
  attr {
    key: "T"
    value {
      type: DT_FLOAT
    }
  }
  attr {
    key: "data_format"
    value {
      s: "NHWC"
    }
  }
}
node {
  name: "finalfc/Softmax"
  op: "Softmax"
  input: "finalfc/BiasAdd"
  attr {
    key: "T"
    value {
      type: DT_FLOAT
    }
  }
}
node {
  name: "Placeholder"
  op: "Placeholder"
  attr {
    key: "dtype"
    value {
      type: DT_FLOAT
    }
  }
  attr {
    key: "shape"
    value {
      shape {
        dim {
          size: 2
        }
        dim {
          size: 2
        }
        dim {
          size: 3
        }
        dim {
          size: 32
        }
      }
    }
  }
}
node {
  name: "Assign"
  op: "Assign"
  input: "firstConv2D/kernel"
  input: "Placeholder"
  attr {
    key: "T"
    value {
      type: DT_FLOAT
    }
  }
  attr {
    key: "_class"
    value {
      list {
        s: "loc:@firstConv2D/kernel"
      }
    }
  }
  attr {
    key: "use_locking"
    value {
      b: false
    }
  }
  attr {
    key: "validate_shape"
    value {
      b: true
    }
  }
}
node {
  name: "Placeholder_1"
  op: "Placeholder"
  attr {
    key: "dtype"
    value {
      type: DT_FLOAT
    }
  }
  attr {
    key: "shape"
    value {
      shape {
        dim {
          size: 32
        }
      }
    }
  }
}
node {
  name: "Assign_1"
  op: "Assign"
  input: "firstConv2D/bias"
  input: "Placeholder_1"
  attr {
    key: "T"
    value {
      type: DT_FLOAT
    }
  }
  attr {
    key: "_class"
    value {
      list {
        s: "loc:@firstConv2D/bias"
      }
    }
  }
  attr {
    key: "use_locking"
    value {
      b: false
    }
  }
  attr {
    key: "validate_shape"
    value {
      b: true
    }
  }
}
node {
  name: "Placeholder_2"
  op: "Placeholder"
  attr {
    key: "dtype"
    value {
      type: DT_FLOAT
    }
  }
  attr {
    key: "shape"
    value {
      shape {
        dim {
          size: 2
        }
        dim {
          size: 2
        }
        dim {
          size: 32
        }
        dim {
          size: 16
        }
      }
    }
  }
}
node {
  name: "Assign_2"
  op: "Assign"
  input: "secondConv2D/kernel"
  input: "Placeholder_2"
  attr {
    key: "T"
    value {
      type: DT_FLOAT
    }
  }
  attr {
    key: "_class"
    value {
      list {
        s: "loc:@secondConv2D/kernel"
      }
    }
  }
  attr {
    key: "use_locking"
    value {
      b: false
    }
  }
  attr {
    key: "validate_shape"
    value {
      b: true
    }
  }
}
node {
  name: "Placeholder_3"
  op: "Placeholder"
  attr {
    key: "dtype"
    value {
      type: DT_FLOAT
    }
  }
  attr {
    key: "shape"
    value {
      shape {
        dim {
          size: 16
        }
      }
    }
  }
}
node {
  name: "Assign_3"
  op: "Assign"
  input: "secondConv2D/bias"
  input: "Placeholder_3"
  attr {
    key: "T"
    value {
      type: DT_FLOAT
    }
  }
  attr {
    key: "_class"
    value {
      list {
        s: "loc:@secondConv2D/bias"
      }
    }
  }
  attr {
    key: "use_locking"
    value {
      b: false
    }
  }
  attr {
    key: "validate_shape"
    value {
      b: true
    }
  }
}
node {
  name: "Placeholder_4"
  op: "Placeholder"
  attr {
    key: "dtype"
    value {
      type: DT_FLOAT
    }
  }
  attr {
    key: "shape"
    value {
      shape {
        dim {
          size: 2
        }
        dim {
          size: 2
        }
        dim {
          size: 16
        }
        dim {
          size: 8
        }
      }
    }
  }
}
node {
  name: "Assign_4"
  op: "Assign"
  input: "thirdc2/kernel"
  input: "Placeholder_4"
  attr {
    key: "T"
    value {
      type: DT_FLOAT
    }
  }
  attr {
    key: "_class"
    value {
      list {
        s: "loc:@thirdc2/kernel"
      }
    }
  }
  attr {
    key: "use_locking"
    value {
      b: false
    }
  }
  attr {
    key: "validate_shape"
    value {
      b: true
    }
  }
}
node {
  name: "Placeholder_5"
  op: "Placeholder"
  attr {
    key: "dtype"
    value {
      type: DT_FLOAT
    }
  }
  attr {
    key: "shape"
    value {
      shape {
        dim {
          size: 8
        }
      }
    }
  }
}
node {
  name: "Assign_5"
  op: "Assign"
  input: "thirdc2/bias"
  input: "Placeholder_5"
  attr {
    key: "T"
    value {
      type: DT_FLOAT
    }
  }
  attr {
    key: "_class"
    value {
      list {
        s: "loc:@thirdc2/bias"
      }
    }
  }
  attr {
    key: "use_locking"
    value {
      b: false
    }
  }
  attr {
    key: "validate_shape"
    value {
      b: true
    }
  }
}
node {
  name: "Placeholder_6"
  op: "Placeholder"
  attr {
    key: "dtype"
    value {
      type: DT_FLOAT
    }
  }
  attr {
    key: "shape"
    value {
      shape {
        dim {
          size: 1152
        }
        dim {
          size: 256
        }
      }
    }
  }
}
node {
  name: "Assign_6"
  op: "Assign"
  input: "fc256/kernel"
  input: "Placeholder_6"
  attr {
    key: "T"
    value {
      type: DT_FLOAT
    }
  }
  attr {
    key: "_class"
    value {
      list {
        s: "loc:@fc256/kernel"
      }
    }
  }
  attr {
    key: "use_locking"
    value {
      b: false
    }
  }
  attr {
    key: "validate_shape"
    value {
      b: true
    }
  }
}
node {
  name: "Placeholder_7"
  op: "Placeholder"
  attr {
    key: "dtype"
    value {
      type: DT_FLOAT
    }
  }
  attr {
    key: "shape"
    value {
      shape {
        dim {
          size: 256
        }
      }
    }
  }
}
node {
  name: "Assign_7"
  op: "Assign"
  input: "fc256/bias"
  input: "Placeholder_7"
  attr {
    key: "T"
    value {
      type: DT_FLOAT
    }
  }
  attr {
    key: "_class"
    value {
      list {
        s: "loc:@fc256/bias"
      }
    }
  }
  attr {
    key: "use_locking"
    value {
      b: false
    }
  }
  attr {
    key: "validate_shape"
    value {
      b: true
    }
  }
}
node {
  name: "Placeholder_8"
  op: "Placeholder"
  attr {
    key: "dtype"
    value {
      type: DT_FLOAT
    }
  }
  attr {
    key: "shape"
    value {
      shape {
        dim {
          size: 256
        }
        dim {
          size: 5
        }
      }
    }
  }
}
node {
  name: "Assign_8"
  op: "Assign"
  input: "finalfc/kernel"
  input: "Placeholder_8"
  attr {
    key: "T"
    value {
      type: DT_FLOAT
    }
  }
  attr {
    key: "_class"
    value {
      list {
        s: "loc:@finalfc/kernel"
      }
    }
  }
  attr {
    key: "use_locking"
    value {
      b: false
    }
  }
  attr {
    key: "validate_shape"
    value {
      b: true
    }
  }
}
node {
  name: "Placeholder_9"
  op: "Placeholder"
  attr {
    key: "dtype"
    value {
      type: DT_FLOAT
    }
  }
  attr {
    key: "shape"
    value {
      shape {
        dim {
          size: 5
        }
      }
    }
  }
}
node {
  name: "Assign_9"
  op: "Assign"
  input: "finalfc/bias"
  input: "Placeholder_9"
  attr {
    key: "T"
    value {
      type: DT_FLOAT
    }
  }
  attr {
    key: "_class"
    value {
      list {
        s: "loc:@finalfc/bias"
      }
    }
  }
  attr {
    key: "use_locking"
    value {
      b: false
    }
  }
  attr {
    key: "validate_shape"
    value {
      b: true
    }
  }
}
node {
  name: "IsVariableInitialized"
  op: "IsVariableInitialized"
  input: "firstConv2D/kernel"
  attr {
    key: "_class"
    value {
      list {
        s: "loc:@firstConv2D/kernel"
      }
    }
  }
  attr {
    key: "dtype"
    value {
      type: DT_FLOAT
    }
  }
}
node {
  name: "IsVariableInitialized_1"
  op: "IsVariableInitialized"
  input: "firstConv2D/bias"
  attr {
    key: "_class"
    value {
      list {
        s: "loc:@firstConv2D/bias"
      }
    }
  }
  attr {
    key: "dtype"
    value {
      type: DT_FLOAT
    }
  }
}
node {
  name: "IsVariableInitialized_2"
  op: "IsVariableInitialized"
  input: "secondConv2D/kernel"
  attr {
    key: "_class"
    value {
      list {
        s: "loc:@secondConv2D/kernel"
      }
    }
  }
  attr {
    key: "dtype"
    value {
      type: DT_FLOAT
    }
  }
}
node {
  name: "IsVariableInitialized_3"
  op: "IsVariableInitialized"
  input: "secondConv2D/bias"
  attr {
    key: "_class"
    value {
      list {
        s: "loc:@secondConv2D/bias"
      }
    }
  }
  attr {
    key: "dtype"
    value {
      type: DT_FLOAT
    }
  }
}
node {
  name: "IsVariableInitialized_4"
  op: "IsVariableInitialized"
  input: "thirdc2/kernel"
  attr {
    key: "_class"
    value {
      list {
        s: "loc:@thirdc2/kernel"
      }
    }
  }
  attr {
    key: "dtype"
    value {
      type: DT_FLOAT
    }
  }
}
node {
  name: "IsVariableInitialized_5"
  op: "IsVariableInitialized"
  input: "thirdc2/bias"
  attr {
    key: "_class"
    value {
      list {
        s: "loc:@thirdc2/bias"
      }
    }
  }
  attr {
    key: "dtype"
    value {
      type: DT_FLOAT
    }
  }
}
node {
  name: "IsVariableInitialized_6"
  op: "IsVariableInitialized"
  input: "fc256/kernel"
  attr {
    key: "_class"
    value {
      list {
        s: "loc:@fc256/kernel"
      }
    }
  }
  attr {
    key: "dtype"
    value {
      type: DT_FLOAT
    }
  }
}
node {
  name: "IsVariableInitialized_7"
  op: "IsVariableInitialized"
  input: "fc256/bias"
  attr {
    key: "_class"
    value {
      list {
        s: "loc:@fc256/bias"
      }
    }
  }
  attr {
    key: "dtype"
    value {
      type: DT_FLOAT
    }
  }
}
node {
  name: "IsVariableInitialized_8"
  op: "IsVariableInitialized"
  input: "finalfc/kernel"
  attr {
    key: "_class"
    value {
      list {
        s: "loc:@finalfc/kernel"
      }
    }
  }
  attr {
    key: "dtype"
    value {
      type: DT_FLOAT
    }
  }
}
node {
  name: "IsVariableInitialized_9"
  op: "IsVariableInitialized"
  input: "finalfc/bias"
  attr {
    key: "_class"
    value {
      list {
        s: "loc:@finalfc/bias"
      }
    }
  }
  attr {
    key: "dtype"
    value {
      type: DT_FLOAT
    }
  }
}
node {
  name: "init"
  op: "NoOp"
  input: "^fc256/bias/Assign"
  input: "^fc256/kernel/Assign"
  input: "^finalfc/bias/Assign"
  input: "^finalfc/kernel/Assign"
  input: "^firstConv2D/bias/Assign"
  input: "^firstConv2D/kernel/Assign"
  input: "^secondConv2D/bias/Assign"
  input: "^secondConv2D/kernel/Assign"
  input: "^thirdc2/bias/Assign"
  input: "^thirdc2/kernel/Assign"
}
node {
  name: "RMSprop/lr/initial_value"
  op: "Const"
  attr {
    key: "dtype"
    value {
      type: DT_FLOAT
    }
  }
  attr {
    key: "value"
    value {
      tensor {
        dtype: DT_FLOAT
        tensor_shape {
        }
        float_val: 0.0010000000474974513
      }
    }
  }
}
node {
  name: "RMSprop/lr"
  op: "VariableV2"
  attr {
    key: "container"
    value {
      s: ""
    }
  }
  attr {
    key: "dtype"
    value {
      type: DT_FLOAT
    }
  }
  attr {
    key: "shape"
    value {
      shape {
      }
    }
  }
  attr {
    key: "shared_name"
    value {
      s: ""
    }
  }
}
node {
  name: "RMSprop/lr/Assign"
  op: "Assign"
  input: "RMSprop/lr"
  input: "RMSprop/lr/initial_value"
  attr {
    key: "T"
    value {
      type: DT_FLOAT
    }
  }
  attr {
    key: "_class"
    value {
      list {
        s: "loc:@RMSprop/lr"
      }
    }
  }
  attr {
    key: "use_locking"
    value {
      b: true
    }
  }
  attr {
    key: "validate_shape"
    value {
      b: true
    }
  }
}
node {
  name: "RMSprop/lr/read"
  op: "Identity"
  input: "RMSprop/lr"
  attr {
    key: "T"
    value {
      type: DT_FLOAT
    }
  }
  attr {
    key: "_class"
    value {
      list {
        s: "loc:@RMSprop/lr"
      }
    }
  }
}
node {
  name: "RMSprop/rho/initial_value"
  op: "Const"
  attr {
    key: "dtype"
    value {
      type: DT_FLOAT
    }
  }
  attr {
    key: "value"
    value {
      tensor {
        dtype: DT_FLOAT
        tensor_shape {
        }
        float_val: 0.8999999761581421
      }
    }
  }
}
node {
  name: "RMSprop/rho"
  op: "VariableV2"
  attr {
    key: "container"
    value {
      s: ""
    }
  }
  attr {
    key: "dtype"
    value {
      type: DT_FLOAT
    }
  }
  attr {
    key: "shape"
    value {
      shape {
      }
    }
  }
  attr {
    key: "shared_name"
    value {
      s: ""
    }
  }
}
node {
  name: "RMSprop/rho/Assign"
  op: "Assign"
  input: "RMSprop/rho"
  input: "RMSprop/rho/initial_value"
  attr {
    key: "T"
    value {
      type: DT_FLOAT
    }
  }
  attr {
    key: "_class"
    value {
      list {
        s: "loc:@RMSprop/rho"
      }
    }
  }
  attr {
    key: "use_locking"
    value {
      b: true
    }
  }
  attr {
    key: "validate_shape"
    value {
      b: true
    }
  }
}
node {
  name: "RMSprop/rho/read"
  op: "Identity"
  input: "RMSprop/rho"
  attr {
    key: "T"
    value {
      type: DT_FLOAT
    }
  }
  attr {
    key: "_class"
    value {
      list {
        s: "loc:@RMSprop/rho"
      }
    }
  }
}
node {
  name: "RMSprop/decay/initial_value"
  op: "Const"
  attr {
    key: "dtype"
    value {
      type: DT_FLOAT
    }
  }
  attr {
    key: "value"
    value {
      tensor {
        dtype: DT_FLOAT
        tensor_shape {
        }
        float_val: 0.0
      }
    }
  }
}
node {
  name: "RMSprop/decay"
  op: "VariableV2"
  attr {
    key: "container"
    value {
      s: ""
    }
  }
  attr {
    key: "dtype"
    value {
      type: DT_FLOAT
    }
  }
  attr {
    key: "shape"
    value {
      shape {
      }
    }
  }
  attr {
    key: "shared_name"
    value {
      s: ""
    }
  }
}
node {
  name: "RMSprop/decay/Assign"
  op: "Assign"
  input: "RMSprop/decay"
  input: "RMSprop/decay/initial_value"
  attr {
    key: "T"
    value {
      type: DT_FLOAT
    }
  }
  attr {
    key: "_class"
    value {
      list {
        s: "loc:@RMSprop/decay"
      }
    }
  }
  attr {
    key: "use_locking"
    value {
      b: true
    }
  }
  attr {
    key: "validate_shape"
    value {
      b: true
    }
  }
}
node {
  name: "RMSprop/decay/read"
  op: "Identity"
  input: "RMSprop/decay"
  attr {
    key: "T"
    value {
      type: DT_FLOAT
    }
  }
  attr {
    key: "_class"
    value {
      list {
        s: "loc:@RMSprop/decay"
      }
    }
  }
}
node {
  name: "RMSprop/iterations/initial_value"
  op: "Const"
  attr {
    key: "dtype"
    value {
      type: DT_INT64
    }
  }
  attr {
    key: "value"
    value {
      tensor {
        dtype: DT_INT64
        tensor_shape {
        }
        int64_val: 0
      }
    }
  }
}
node {
  name: "RMSprop/iterations"
  op: "VariableV2"
  attr {
    key: "container"
    value {
      s: ""
    }
  }
  attr {
    key: "dtype"
    value {
      type: DT_INT64
    }
  }
  attr {
    key: "shape"
    value {
      shape {
      }
    }
  }
  attr {
    key: "shared_name"
    value {
      s: ""
    }
  }
}
node {
  name: "RMSprop/iterations/Assign"
  op: "Assign"
  input: "RMSprop/iterations"
  input: "RMSprop/iterations/initial_value"
  attr {
    key: "T"
    value {
      type: DT_INT64
    }
  }
  attr {
    key: "_class"
    value {
      list {
        s: "loc:@RMSprop/iterations"
      }
    }
  }
  attr {
    key: "use_locking"
    value {
      b: true
    }
  }
  attr {
    key: "validate_shape"
    value {
      b: true
    }
  }
}
node {
  name: "RMSprop/iterations/read"
  op: "Identity"
  input: "RMSprop/iterations"
  attr {
    key: "T"
    value {
      type: DT_INT64
    }
  }
  attr {
    key: "_class"
    value {
      list {
        s: "loc:@RMSprop/iterations"
      }
    }
  }
}
node {
  name: "finalfc_target"
  op: "Placeholder"
  attr {
    key: "dtype"
    value {
      type: DT_FLOAT
    }
  }
  attr {
    key: "shape"
    value {
      shape {
        dim {
          size: -1
        }
        dim {
          size: -1
        }
      }
    }
  }
}
node {
  name: "finalfc_sample_weights"
  op: "Placeholder"
  attr {
    key: "dtype"
    value {
      type: DT_FLOAT
    }
  }
  attr {
    key: "shape"
    value {
      shape {
        dim {
          size: -1
        }
      }
    }
  }
}
node {
  name: "loss/finalfc_loss/Sum/reduction_indices"
  op: "Const"
  attr {
    key: "dtype"
    value {
      type: DT_INT32
    }
  }
  attr {
    key: "value"
    value {
      tensor {
        dtype: DT_INT32
        tensor_shape {
        }
        int_val: -1
      }
    }
  }
}
node {
  name: "loss/finalfc_loss/Sum"
  op: "Sum"
  input: "finalfc/Softmax"
  input: "loss/finalfc_loss/Sum/reduction_indices"
  attr {
    key: "T"
    value {
      type: DT_FLOAT
    }
  }
  attr {
    key: "Tidx"
    value {
      type: DT_INT32
    }
  }
  attr {
    key: "keep_dims"
    value {
      b: true
    }
  }
}
node {
  name: "loss/finalfc_loss/truediv"
  op: "RealDiv"
  input: "finalfc/Softmax"
  input: "loss/finalfc_loss/Sum"
  attr {
    key: "T"
    value {
      type: DT_FLOAT
    }
  }
}
node {
  name: "loss/finalfc_loss/Const"
  op: "Const"
  attr {
    key: "dtype"
    value {
      type: DT_FLOAT
    }
  }
  attr {
    key: "value"
    value {
      tensor {
        dtype: DT_FLOAT
        tensor_shape {
        }
        float_val: 1.0000000116860974e-07
      }
    }
  }
}
node {
  name: "loss/finalfc_loss/sub/x"
  op: "Const"
  attr {
    key: "dtype"
    value {
      type: DT_FLOAT
    }
  }
  attr {
    key: "value"
    value {
      tensor {
        dtype: DT_FLOAT
        tensor_shape {
        }
        float_val: 1.0
      }
    }
  }
}
node {
  name: "loss/finalfc_loss/sub"
  op: "Sub"
  input: "loss/finalfc_loss/sub/x"
  input: "loss/finalfc_loss/Const"
  attr {
    key: "T"
    value {
      type: DT_FLOAT
    }
  }
}
node {
  name: "loss/finalfc_loss/clip_by_value/Minimum"
  op: "Minimum"
  input: "loss/finalfc_loss/truediv"
  input: "loss/finalfc_loss/sub"
  attr {
    key: "T"
    value {
      type: DT_FLOAT
    }
  }
}
node {
  name: "loss/finalfc_loss/clip_by_value"
  op: "Maximum"
  input: "loss/finalfc_loss/clip_by_value/Minimum"
  input: "loss/finalfc_loss/Const"
  attr {
    key: "T"
    value {
      type: DT_FLOAT
    }
  }
}
node {
  name: "loss/finalfc_loss/Log"
  op: "Log"
  input: "loss/finalfc_loss/clip_by_value"
  attr {
    key: "T"
    value {
      type: DT_FLOAT
    }
  }
}
node {
  name: "loss/finalfc_loss/mul"
  op: "Mul"
  input: "finalfc_target"
  input: "loss/finalfc_loss/Log"
  attr {
    key: "T"
    value {
      type: DT_FLOAT
    }
  }
}
node {
  name: "loss/finalfc_loss/Sum_1/reduction_indices"
  op: "Const"
  attr {
    key: "dtype"
    value {
      type: DT_INT32
    }
  }
  attr {
    key: "value"
    value {
      tensor {
        dtype: DT_INT32
        tensor_shape {
        }
        int_val: -1
      }
    }
  }
}
node {
  name: "loss/finalfc_loss/Sum_1"
  op: "Sum"
  input: "loss/finalfc_loss/mul"
  input: "loss/finalfc_loss/Sum_1/reduction_indices"
  attr {
    key: "T"
    value {
      type: DT_FLOAT
    }
  }
  attr {
    key: "Tidx"
    value {
      type: DT_INT32
    }
  }
  attr {
    key: "keep_dims"
    value {
      b: false
    }
  }
}
node {
  name: "loss/finalfc_loss/Neg"
  op: "Neg"
  input: "loss/finalfc_loss/Sum_1"
  attr {
    key: "T"
    value {
      type: DT_FLOAT
    }
  }
}
node {
  name: "loss/finalfc_loss/Mean/reduction_indices"
  op: "Const"
  attr {
    key: "dtype"
    value {
      type: DT_INT32
    }
  }
  attr {
    key: "value"
    value {
      tensor {
        dtype: DT_INT32
        tensor_shape {
          dim {
          }
        }
      }
    }
  }
}
node {
  name: "loss/finalfc_loss/Mean"
  op: "Mean"
  input: "loss/finalfc_loss/Neg"
  input: "loss/finalfc_loss/Mean/reduction_indices"
  attr {
    key: "T"
    value {
      type: DT_FLOAT
    }
  }
  attr {
    key: "Tidx"
    value {
      type: DT_INT32
    }
  }
  attr {
    key: "keep_dims"
    value {
      b: false
    }
  }
}
node {
  name: "loss/finalfc_loss/mul_1"
  op: "Mul"
  input: "loss/finalfc_loss/Mean"
  input: "finalfc_sample_weights"
  attr {
    key: "T"
    value {
      type: DT_FLOAT
    }
  }
}
node {
  name: "loss/finalfc_loss/NotEqual/y"
  op: "Const"
  attr {
    key: "dtype"
    value {
      type: DT_FLOAT
    }
  }
  attr {
    key: "value"
    value {
      tensor {
        dtype: DT_FLOAT
        tensor_shape {
        }
        float_val: 0.0
      }
    }
  }
}
node {
  name: "loss/finalfc_loss/NotEqual"
  op: "NotEqual"
  input: "finalfc_sample_weights"
  input: "loss/finalfc_loss/NotEqual/y"
  attr {
    key: "T"
    value {
      type: DT_FLOAT
    }
  }
}
node {
  name: "loss/finalfc_loss/Cast"
  op: "Cast"
  input: "loss/finalfc_loss/NotEqual"
  attr {
    key: "DstT"
    value {
      type: DT_FLOAT
    }
  }
  attr {
    key: "SrcT"
    value {
      type: DT_BOOL
    }
  }
  attr {
    key: "Truncate"
    value {
      b: false
    }
  }
}
node {
  name: "loss/finalfc_loss/Const_1"
  op: "Const"
  attr {
    key: "dtype"
    value {
      type: DT_INT32
    }
  }
  attr {
    key: "value"
    value {
      tensor {
        dtype: DT_INT32
        tensor_shape {
          dim {
            size: 1
          }
        }
        int_val: 0
      }
    }
  }
}
node {
  name: "loss/finalfc_loss/Mean_1"
  op: "Mean"
  input: "loss/finalfc_loss/Cast"
  input: "loss/finalfc_loss/Const_1"
  attr {
    key: "T"
    value {
      type: DT_FLOAT
    }
  }
  attr {
    key: "Tidx"
    value {
      type: DT_INT32
    }
  }
  attr {
    key: "keep_dims"
    value {
      b: false
    }
  }
}
node {
  name: "loss/finalfc_loss/truediv_1"
  op: "RealDiv"
  input: "loss/finalfc_loss/mul_1"
  input: "loss/finalfc_loss/Mean_1"
  attr {
    key: "T"
    value {
      type: DT_FLOAT
    }
  }
}
node {
  name: "loss/finalfc_loss/Const_2"
  op: "Const"
  attr {
    key: "dtype"
    value {
      type: DT_INT32
    }
  }
  attr {
    key: "value"
    value {
      tensor {
        dtype: DT_INT32
        tensor_shape {
          dim {
            size: 1
          }
        }
        int_val: 0
      }
    }
  }
}
node {
  name: "loss/finalfc_loss/Mean_2"
  op: "Mean"
  input: "loss/finalfc_loss/truediv_1"
  input: "loss/finalfc_loss/Const_2"
  attr {
    key: "T"
    value {
      type: DT_FLOAT
    }
  }
  attr {
    key: "Tidx"
    value {
      type: DT_INT32
    }
  }
  attr {
    key: "keep_dims"
    value {
      b: false
    }
  }
}
node {
  name: "loss/mul/x"
  op: "Const"
  attr {
    key: "dtype"
    value {
      type: DT_FLOAT
    }
  }
  attr {
    key: "value"
    value {
      tensor {
        dtype: DT_FLOAT
        tensor_shape {
        }
        float_val: 1.0
      }
    }
  }
}
node {
  name: "loss/mul"
  op: "Mul"
  input: "loss/mul/x"
  input: "loss/finalfc_loss/Mean_2"
  attr {
    key: "T"
    value {
      type: DT_FLOAT
    }
  }
}
node {
  name: "metrics/acc/ArgMax/dimension"
  op: "Const"
  attr {
    key: "dtype"
    value {
      type: DT_INT32
    }
  }
  attr {
    key: "value"
    value {
      tensor {
        dtype: DT_INT32
        tensor_shape {
        }
        int_val: -1
      }
    }
  }
}
node {
  name: "metrics/acc/ArgMax"
  op: "ArgMax"
  input: "finalfc_target"
  input: "metrics/acc/ArgMax/dimension"
  attr {
    key: "T"
    value {
      type: DT_FLOAT
    }
  }
  attr {
    key: "Tidx"
    value {
      type: DT_INT32
    }
  }
  attr {
    key: "output_type"
    value {
      type: DT_INT64
    }
  }
}
node {
  name: "metrics/acc/ArgMax_1/dimension"
  op: "Const"
  attr {
    key: "dtype"
    value {
      type: DT_INT32
    }
  }
  attr {
    key: "value"
    value {
      tensor {
        dtype: DT_INT32
        tensor_shape {
        }
        int_val: -1
      }
    }
  }
}
node {
  name: "metrics/acc/ArgMax_1"
  op: "ArgMax"
  input: "finalfc/Softmax"
  input: "metrics/acc/ArgMax_1/dimension"
  attr {
    key: "T"
    value {
      type: DT_FLOAT
    }
  }
  attr {
    key: "Tidx"
    value {
      type: DT_INT32
    }
  }
  attr {
    key: "output_type"
    value {
      type: DT_INT64
    }
  }
}
node {
  name: "metrics/acc/Equal"
  op: "Equal"
  input: "metrics/acc/ArgMax"
  input: "metrics/acc/ArgMax_1"
  attr {
    key: "T"
    value {
      type: DT_INT64
    }
  }
}
node {
  name: "metrics/acc/Cast"
  op: "Cast"
  input: "metrics/acc/Equal"
  attr {
    key: "DstT"
    value {
      type: DT_FLOAT
    }
  }
  attr {
    key: "SrcT"
    value {
      type: DT_BOOL
    }
  }
  attr {
    key: "Truncate"
    value {
      b: false
    }
  }
}
node {
  name: "metrics/acc/Const"
  op: "Const"
  attr {
    key: "dtype"
    value {
      type: DT_INT32
    }
  }
  attr {
    key: "value"
    value {
      tensor {
        dtype: DT_INT32
        tensor_shape {
          dim {
            size: 1
          }
        }
        int_val: 0
      }
    }
  }
}
node {
  name: "metrics/acc/Mean"
  op: "Mean"
  input: "metrics/acc/Cast"
  input: "metrics/acc/Const"
  attr {
    key: "T"
    value {
      type: DT_FLOAT
    }
  }
  attr {
    key: "Tidx"
    value {
      type: DT_INT32
    }
  }
  attr {
    key: "keep_dims"
    value {
      b: false
    }
  }
}
node {
  name: "training/RMSprop/gradients/Shape"
  op: "Const"
  attr {
    key: "_class"
    value {
      list {
        s: "loc:@loss/mul"
      }
    }
  }
  attr {
    key: "dtype"
    value {
      type: DT_INT32
    }
  }
  attr {
    key: "value"
    value {
      tensor {
        dtype: DT_INT32
        tensor_shape {
          dim {
          }
        }
      }
    }
  }
}
node {
  name: "training/RMSprop/gradients/grad_ys_0"
  op: "Const"
  attr {
    key: "_class"
    value {
      list {
        s: "loc:@loss/mul"
      }
    }
  }
  attr {
    key: "dtype"
    value {
      type: DT_FLOAT
    }
  }
  attr {
    key: "value"
    value {
      tensor {
        dtype: DT_FLOAT
        tensor_shape {
        }
        float_val: 1.0
      }
    }
  }
}
node {
  name: "training/RMSprop/gradients/Fill"
  op: "Fill"
  input: "training/RMSprop/gradients/Shape"
  input: "training/RMSprop/gradients/grad_ys_0"
  attr {
    key: "T"
    value {
      type: DT_FLOAT
    }
  }
  attr {
    key: "_class"
    value {
      list {
        s: "loc:@loss/mul"
      }
    }
  }
  attr {
    key: "index_type"
    value {
      type: DT_INT32
    }
  }
}
node {
  name: "training/RMSprop/gradients/loss/mul_grad/Mul"
  op: "Mul"
  input: "training/RMSprop/gradients/Fill"
  input: "loss/finalfc_loss/Mean_2"
  attr {
    key: "T"
    value {
      type: DT_FLOAT
    }
  }
  attr {
    key: "_class"
    value {
      list {
        s: "loc:@loss/mul"
      }
    }
  }
}
node {
  name: "training/RMSprop/gradients/loss/mul_grad/Mul_1"
  op: "Mul"
  input: "training/RMSprop/gradients/Fill"
  input: "loss/mul/x"
  attr {
    key: "T"
    value {
      type: DT_FLOAT
    }
  }
  attr {
    key: "_class"
    value {
      list {
        s: "loc:@loss/mul"
      }
    }
  }
}
node {
  name: "training/RMSprop/gradients/loss/finalfc_loss/Mean_2_grad/Reshape/shape"
  op: "Const"
  attr {
    key: "_class"
    value {
      list {
        s: "loc:@loss/finalfc_loss/Mean_2"
      }
    }
  }
  attr {
    key: "dtype"
    value {
      type: DT_INT32
    }
  }
  attr {
    key: "value"
    value {
      tensor {
        dtype: DT_INT32
        tensor_shape {
          dim {
            size: 1
          }
        }
        int_val: 1
      }
    }
  }
}
node {
  name: "training/RMSprop/gradients/loss/finalfc_loss/Mean_2_grad/Reshape"
  op: "Reshape"
  input: "training/RMSprop/gradients/loss/mul_grad/Mul_1"
  input: "training/RMSprop/gradients/loss/finalfc_loss/Mean_2_grad/Reshape/shape"
  attr {
    key: "T"
    value {
      type: DT_FLOAT
    }
  }
  attr {
    key: "Tshape"
    value {
      type: DT_INT32
    }
  }
  attr {
    key: "_class"
    value {
      list {
        s: "loc:@loss/finalfc_loss/Mean_2"
      }
    }
  }
}
node {
  name: "training/RMSprop/gradients/loss/finalfc_loss/Mean_2_grad/Shape"
  op: "Shape"
  input: "loss/finalfc_loss/truediv_1"
  attr {
    key: "T"
    value {
      type: DT_FLOAT
    }
  }
  attr {
    key: "_class"
    value {
      list {
        s: "loc:@loss/finalfc_loss/Mean_2"
      }
    }
  }
  attr {
    key: "out_type"
    value {
      type: DT_INT32
    }
  }
}
node {
  name: "training/RMSprop/gradients/loss/finalfc_loss/Mean_2_grad/Tile"
  op: "Tile"
  input: "training/RMSprop/gradients/loss/finalfc_loss/Mean_2_grad/Reshape"
  input: "training/RMSprop/gradients/loss/finalfc_loss/Mean_2_grad/Shape"
  attr {
    key: "T"
    value {
      type: DT_FLOAT
    }
  }
  attr {
    key: "Tmultiples"
    value {
      type: DT_INT32
    }
  }
  attr {
    key: "_class"
    value {
      list {
        s: "loc:@loss/finalfc_loss/Mean_2"
      }
    }
  }
}
node {
  name: "training/RMSprop/gradients/loss/finalfc_loss/Mean_2_grad/Shape_1"
  op: "Shape"
  input: "loss/finalfc_loss/truediv_1"
  attr {
    key: "T"
    value {
      type: DT_FLOAT
    }
  }
  attr {
    key: "_class"
    value {
      list {
        s: "loc:@loss/finalfc_loss/Mean_2"
      }
    }
  }
  attr {
    key: "out_type"
    value {
      type: DT_INT32
    }
  }
}
node {
  name: "training/RMSprop/gradients/loss/finalfc_loss/Mean_2_grad/Shape_2"
  op: "Const"
  attr {
    key: "_class"
    value {
      list {
        s: "loc:@loss/finalfc_loss/Mean_2"
      }
    }
  }
  attr {
    key: "dtype"
    value {
      type: DT_INT32
    }
  }
  attr {
    key: "value"
    value {
      tensor {
        dtype: DT_INT32
        tensor_shape {
          dim {
          }
        }
      }
    }
  }
}
node {
  name: "training/RMSprop/gradients/loss/finalfc_loss/Mean_2_grad/Const"
  op: "Const"
  attr {
    key: "_class"
    value {
      list {
        s: "loc:@loss/finalfc_loss/Mean_2"
      }
    }
  }
  attr {
    key: "dtype"
    value {
      type: DT_INT32
    }
  }
  attr {
    key: "value"
    value {
      tensor {
        dtype: DT_INT32
        tensor_shape {
          dim {
            size: 1
          }
        }
        int_val: 0
      }
    }
  }
}
node {
  name: "training/RMSprop/gradients/loss/finalfc_loss/Mean_2_grad/Prod"
  op: "Prod"
  input: "training/RMSprop/gradients/loss/finalfc_loss/Mean_2_grad/Shape_1"
  input: "training/RMSprop/gradients/loss/finalfc_loss/Mean_2_grad/Const"
  attr {
    key: "T"
    value {
      type: DT_INT32
    }
  }
  attr {
    key: "Tidx"
    value {
      type: DT_INT32
    }
  }
  attr {
    key: "_class"
    value {
      list {
        s: "loc:@loss/finalfc_loss/Mean_2"
      }
    }
  }
  attr {
    key: "keep_dims"
    value {
      b: false
    }
  }
}
node {
  name: "training/RMSprop/gradients/loss/finalfc_loss/Mean_2_grad/Const_1"
  op: "Const"
  attr {
    key: "_class"
    value {
      list {
        s: "loc:@loss/finalfc_loss/Mean_2"
      }
    }
  }
  attr {
    key: "dtype"
    value {
      type: DT_INT32
    }
  }
  attr {
    key: "value"
    value {
      tensor {
        dtype: DT_INT32
        tensor_shape {
          dim {
            size: 1
          }
        }
        int_val: 0
      }
    }
  }
}
node {
  name: "training/RMSprop/gradients/loss/finalfc_loss/Mean_2_grad/Prod_1"
  op: "Prod"
  input: "training/RMSprop/gradients/loss/finalfc_loss/Mean_2_grad/Shape_2"
  input: "training/RMSprop/gradients/loss/finalfc_loss/Mean_2_grad/Const_1"
  attr {
    key: "T"
    value {
      type: DT_INT32
    }
  }
  attr {
    key: "Tidx"
    value {
      type: DT_INT32
    }
  }
  attr {
    key: "_class"
    value {
      list {
        s: "loc:@loss/finalfc_loss/Mean_2"
      }
    }
  }
  attr {
    key: "keep_dims"
    value {
      b: false
    }
  }
}
node {
  name: "training/RMSprop/gradients/loss/finalfc_loss/Mean_2_grad/Maximum/y"
  op: "Const"
  attr {
    key: "_class"
    value {
      list {
        s: "loc:@loss/finalfc_loss/Mean_2"
      }
    }
  }
  attr {
    key: "dtype"
    value {
      type: DT_INT32
    }
  }
  attr {
    key: "value"
    value {
      tensor {
        dtype: DT_INT32
        tensor_shape {
        }
        int_val: 1
      }
    }
  }
}
node {
  name: "training/RMSprop/gradients/loss/finalfc_loss/Mean_2_grad/Maximum"
  op: "Maximum"
  input: "training/RMSprop/gradients/loss/finalfc_loss/Mean_2_grad/Prod_1"
  input: "training/RMSprop/gradients/loss/finalfc_loss/Mean_2_grad/Maximum/y"
  attr {
    key: "T"
    value {
      type: DT_INT32
    }
  }
  attr {
    key: "_class"
    value {
      list {
        s: "loc:@loss/finalfc_loss/Mean_2"
      }
    }
  }
}
node {
  name: "training/RMSprop/gradients/loss/finalfc_loss/Mean_2_grad/floordiv"
  op: "FloorDiv"
  input: "training/RMSprop/gradients/loss/finalfc_loss/Mean_2_grad/Prod"
  input: "training/RMSprop/gradients/loss/finalfc_loss/Mean_2_grad/Maximum"
  attr {
    key: "T"
    value {
      type: DT_INT32
    }
  }
  attr {
    key: "_class"
    value {
      list {
        s: "loc:@loss/finalfc_loss/Mean_2"
      }
    }
  }
}
node {
  name: "training/RMSprop/gradients/loss/finalfc_loss/Mean_2_grad/Cast"
  op: "Cast"
  input: "training/RMSprop/gradients/loss/finalfc_loss/Mean_2_grad/floordiv"
  attr {
    key: "DstT"
    value {
      type: DT_FLOAT
    }
  }
  attr {
    key: "SrcT"
    value {
      type: DT_INT32
    }
  }
  attr {
    key: "Truncate"
    value {
      b: false
    }
  }
  attr {
    key: "_class"
    value {
      list {
        s: "loc:@loss/finalfc_loss/Mean_2"
      }
    }
  }
}
node {
  name: "training/RMSprop/gradients/loss/finalfc_loss/Mean_2_grad/truediv"
  op: "RealDiv"
  input: "training/RMSprop/gradients/loss/finalfc_loss/Mean_2_grad/Tile"
  input: "training/RMSprop/gradients/loss/finalfc_loss/Mean_2_grad/Cast"
  attr {
    key: "T"
    value {
      type: DT_FLOAT
    }
  }
  attr {
    key: "_class"
    value {
      list {
        s: "loc:@loss/finalfc_loss/Mean_2"
      }
    }
  }
}
node {
  name: "training/RMSprop/gradients/loss/finalfc_loss/truediv_1_grad/Shape"
  op: "Shape"
  input: "loss/finalfc_loss/mul_1"
  attr {
    key: "T"
    value {
      type: DT_FLOAT
    }
  }
  attr {
    key: "_class"
    value {
      list {
        s: "loc:@loss/finalfc_loss/truediv_1"
      }
    }
  }
  attr {
    key: "out_type"
    value {
      type: DT_INT32
    }
  }
}
node {
  name: "training/RMSprop/gradients/loss/finalfc_loss/truediv_1_grad/Shape_1"
  op: "Const"
  attr {
    key: "_class"
    value {
      list {
        s: "loc:@loss/finalfc_loss/truediv_1"
      }
    }
  }
  attr {
    key: "dtype"
    value {
      type: DT_INT32
    }
  }
  attr {
    key: "value"
    value {
      tensor {
        dtype: DT_INT32
        tensor_shape {
          dim {
          }
        }
      }
    }
  }
}
node {
  name: "training/RMSprop/gradients/loss/finalfc_loss/truediv_1_grad/BroadcastGradientArgs"
  op: "BroadcastGradientArgs"
  input: "training/RMSprop/gradients/loss/finalfc_loss/truediv_1_grad/Shape"
  input: "training/RMSprop/gradients/loss/finalfc_loss/truediv_1_grad/Shape_1"
  attr {
    key: "T"
    value {
      type: DT_INT32
    }
  }
  attr {
    key: "_class"
    value {
      list {
        s: "loc:@loss/finalfc_loss/truediv_1"
      }
    }
  }
}
node {
  name: "training/RMSprop/gradients/loss/finalfc_loss/truediv_1_grad/RealDiv"
  op: "RealDiv"
  input: "training/RMSprop/gradients/loss/finalfc_loss/Mean_2_grad/truediv"
  input: "loss/finalfc_loss/Mean_1"
  attr {
    key: "T"
    value {
      type: DT_FLOAT
    }
  }
  attr {
    key: "_class"
    value {
      list {
        s: "loc:@loss/finalfc_loss/truediv_1"
      }
    }
  }
}
node {
  name: "training/RMSprop/gradients/loss/finalfc_loss/truediv_1_grad/Sum"
  op: "Sum"
  input: "training/RMSprop/gradients/loss/finalfc_loss/truediv_1_grad/RealDiv"
  input: "training/RMSprop/gradients/loss/finalfc_loss/truediv_1_grad/BroadcastGradientArgs"
  attr {
    key: "T"
    value {
      type: DT_FLOAT
    }
  }
  attr {
    key: "Tidx"
    value {
      type: DT_INT32
    }
  }
  attr {
    key: "_class"
    value {
      list {
        s: "loc:@loss/finalfc_loss/truediv_1"
      }
    }
  }
  attr {
    key: "keep_dims"
    value {
      b: false
    }
  }
}
node {
  name: "training/RMSprop/gradients/loss/finalfc_loss/truediv_1_grad/Reshape"
  op: "Reshape"
  input: "training/RMSprop/gradients/loss/finalfc_loss/truediv_1_grad/Sum"
  input: "training/RMSprop/gradients/loss/finalfc_loss/truediv_1_grad/Shape"
  attr {
    key: "T"
    value {
      type: DT_FLOAT
    }
  }
  attr {
    key: "Tshape"
    value {
      type: DT_INT32
    }
  }
  attr {
    key: "_class"
    value {
      list {
        s: "loc:@loss/finalfc_loss/truediv_1"
      }
    }
  }
}
node {
  name: "training/RMSprop/gradients/loss/finalfc_loss/truediv_1_grad/Neg"
  op: "Neg"
  input: "loss/finalfc_loss/mul_1"
  attr {
    key: "T"
    value {
      type: DT_FLOAT
    }
  }
  attr {
    key: "_class"
    value {
      list {
        s: "loc:@loss/finalfc_loss/truediv_1"
      }
    }
  }
}
node {
  name: "training/RMSprop/gradients/loss/finalfc_loss/truediv_1_grad/RealDiv_1"
  op: "RealDiv"
  input: "training/RMSprop/gradients/loss/finalfc_loss/truediv_1_grad/Neg"
  input: "loss/finalfc_loss/Mean_1"
  attr {
    key: "T"
    value {
      type: DT_FLOAT
    }
  }
  attr {
    key: "_class"
    value {
      list {
        s: "loc:@loss/finalfc_loss/truediv_1"
      }
    }
  }
}
node {
  name: "training/RMSprop/gradients/loss/finalfc_loss/truediv_1_grad/RealDiv_2"
  op: "RealDiv"
  input: "training/RMSprop/gradients/loss/finalfc_loss/truediv_1_grad/RealDiv_1"
  input: "loss/finalfc_loss/Mean_1"
  attr {
    key: "T"
    value {
      type: DT_FLOAT
    }
  }
  attr {
    key: "_class"
    value {
      list {
        s: "loc:@loss/finalfc_loss/truediv_1"
      }
    }
  }
}
node {
  name: "training/RMSprop/gradients/loss/finalfc_loss/truediv_1_grad/mul"
  op: "Mul"
  input: "training/RMSprop/gradients/loss/finalfc_loss/Mean_2_grad/truediv"
  input: "training/RMSprop/gradients/loss/finalfc_loss/truediv_1_grad/RealDiv_2"
  attr {
    key: "T"
    value {
      type: DT_FLOAT
    }
  }
  attr {
    key: "_class"
    value {
      list {
        s: "loc:@loss/finalfc_loss/truediv_1"
      }
    }
  }
}
node {
  name: "training/RMSprop/gradients/loss/finalfc_loss/truediv_1_grad/Sum_1"
  op: "Sum"
  input: "training/RMSprop/gradients/loss/finalfc_loss/truediv_1_grad/mul"
  input: "training/RMSprop/gradients/loss/finalfc_loss/truediv_1_grad/BroadcastGradientArgs:1"
  attr {
    key: "T"
    value {
      type: DT_FLOAT
    }
  }
  attr {
    key: "Tidx"
    value {
      type: DT_INT32
    }
  }
  attr {
    key: "_class"
    value {
      list {
        s: "loc:@loss/finalfc_loss/truediv_1"
      }
    }
  }
  attr {
    key: "keep_dims"
    value {
      b: false
    }
  }
}
node {
  name: "training/RMSprop/gradients/loss/finalfc_loss/truediv_1_grad/Reshape_1"
  op: "Reshape"
  input: "training/RMSprop/gradients/loss/finalfc_loss/truediv_1_grad/Sum_1"
  input: "training/RMSprop/gradients/loss/finalfc_loss/truediv_1_grad/Shape_1"
  attr {
    key: "T"
    value {
      type: DT_FLOAT
    }
  }
  attr {
    key: "Tshape"
    value {
      type: DT_INT32
    }
  }
  attr {
    key: "_class"
    value {
      list {
        s: "loc:@loss/finalfc_loss/truediv_1"
      }
    }
  }
}
node {
  name: "training/RMSprop/gradients/loss/finalfc_loss/mul_1_grad/Shape"
  op: "Shape"
  input: "loss/finalfc_loss/Mean"
  attr {
    key: "T"
    value {
      type: DT_FLOAT
    }
  }
  attr {
    key: "_class"
    value {
      list {
        s: "loc:@loss/finalfc_loss/mul_1"
      }
    }
  }
  attr {
    key: "out_type"
    value {
      type: DT_INT32
    }
  }
}
node {
  name: "training/RMSprop/gradients/loss/finalfc_loss/mul_1_grad/Shape_1"
  op: "Shape"
  input: "finalfc_sample_weights"
  attr {
    key: "T"
    value {
      type: DT_FLOAT
    }
  }
  attr {
    key: "_class"
    value {
      list {
        s: "loc:@loss/finalfc_loss/mul_1"
      }
    }
  }
  attr {
    key: "out_type"
    value {
      type: DT_INT32
    }
  }
}
node {
  name: "training/RMSprop/gradients/loss/finalfc_loss/mul_1_grad/BroadcastGradientArgs"
  op: "BroadcastGradientArgs"
  input: "training/RMSprop/gradients/loss/finalfc_loss/mul_1_grad/Shape"
  input: "training/RMSprop/gradients/loss/finalfc_loss/mul_1_grad/Shape_1"
  attr {
    key: "T"
    value {
      type: DT_INT32
    }
  }
  attr {
    key: "_class"
    value {
      list {
        s: "loc:@loss/finalfc_loss/mul_1"
      }
    }
  }
}
node {
  name: "training/RMSprop/gradients/loss/finalfc_loss/mul_1_grad/Mul"
  op: "Mul"
  input: "training/RMSprop/gradients/loss/finalfc_loss/truediv_1_grad/Reshape"
  input: "finalfc_sample_weights"
  attr {
    key: "T"
    value {
      type: DT_FLOAT
    }
  }
  attr {
    key: "_class"
    value {
      list {
        s: "loc:@loss/finalfc_loss/mul_1"
      }
    }
  }
}
node {
  name: "training/RMSprop/gradients/loss/finalfc_loss/mul_1_grad/Sum"
  op: "Sum"
  input: "training/RMSprop/gradients/loss/finalfc_loss/mul_1_grad/Mul"
  input: "training/RMSprop/gradients/loss/finalfc_loss/mul_1_grad/BroadcastGradientArgs"
  attr {
    key: "T"
    value {
      type: DT_FLOAT
    }
  }
  attr {
    key: "Tidx"
    value {
      type: DT_INT32
    }
  }
  attr {
    key: "_class"
    value {
      list {
        s: "loc:@loss/finalfc_loss/mul_1"
      }
    }
  }
  attr {
    key: "keep_dims"
    value {
      b: false
    }
  }
}
node {
  name: "training/RMSprop/gradients/loss/finalfc_loss/mul_1_grad/Reshape"
  op: "Reshape"
  input: "training/RMSprop/gradients/loss/finalfc_loss/mul_1_grad/Sum"
  input: "training/RMSprop/gradients/loss/finalfc_loss/mul_1_grad/Shape"
  attr {
    key: "T"
    value {
      type: DT_FLOAT
    }
  }
  attr {
    key: "Tshape"
    value {
      type: DT_INT32
    }
  }
  attr {
    key: "_class"
    value {
      list {
        s: "loc:@loss/finalfc_loss/mul_1"
      }
    }
  }
}
node {
  name: "training/RMSprop/gradients/loss/finalfc_loss/mul_1_grad/Mul_1"
  op: "Mul"
  input: "loss/finalfc_loss/Mean"
  input: "training/RMSprop/gradients/loss/finalfc_loss/truediv_1_grad/Reshape"
  attr {
    key: "T"
    value {
      type: DT_FLOAT
    }
  }
  attr {
    key: "_class"
    value {
      list {
        s: "loc:@loss/finalfc_loss/mul_1"
      }
    }
  }
}
node {
  name: "training/RMSprop/gradients/loss/finalfc_loss/mul_1_grad/Sum_1"
  op: "Sum"
  input: "training/RMSprop/gradients/loss/finalfc_loss/mul_1_grad/Mul_1"
  input: "training/RMSprop/gradients/loss/finalfc_loss/mul_1_grad/BroadcastGradientArgs:1"
  attr {
    key: "T"
    value {
      type: DT_FLOAT
    }
  }
  attr {
    key: "Tidx"
    value {
      type: DT_INT32
    }
  }
  attr {
    key: "_class"
    value {
      list {
        s: "loc:@loss/finalfc_loss/mul_1"
      }
    }
  }
  attr {
    key: "keep_dims"
    value {
      b: false
    }
  }
}
node {
  name: "training/RMSprop/gradients/loss/finalfc_loss/mul_1_grad/Reshape_1"
  op: "Reshape"
  input: "training/RMSprop/gradients/loss/finalfc_loss/mul_1_grad/Sum_1"
  input: "training/RMSprop/gradients/loss/finalfc_loss/mul_1_grad/Shape_1"
  attr {
    key: "T"
    value {
      type: DT_FLOAT
    }
  }
  attr {
    key: "Tshape"
    value {
      type: DT_INT32
    }
  }
  attr {
    key: "_class"
    value {
      list {
        s: "loc:@loss/finalfc_loss/mul_1"
      }
    }
  }
}
node {
  name: "training/RMSprop/gradients/loss/finalfc_loss/Mean_grad/Shape"
  op: "Shape"
  input: "loss/finalfc_loss/Neg"
  attr {
    key: "T"
    value {
      type: DT_FLOAT
    }
  }
  attr {
    key: "_class"
    value {
      list {
        s: "loc:@loss/finalfc_loss/Mean"
      }
    }
  }
  attr {
    key: "out_type"
    value {
      type: DT_INT32
    }
  }
}
node {
  name: "training/RMSprop/gradients/loss/finalfc_loss/Mean_grad/Size"
  op: "Const"
  attr {
    key: "_class"
    value {
      list {
        s: "loc:@loss/finalfc_loss/Mean"
      }
    }
  }
  attr {
    key: "dtype"
    value {
      type: DT_INT32
    }
  }
  attr {
    key: "value"
    value {
      tensor {
        dtype: DT_INT32
        tensor_shape {
        }
        int_val: 1
      }
    }
  }
}
node {
  name: "training/RMSprop/gradients/loss/finalfc_loss/Mean_grad/add"
  op: "Add"
  input: "loss/finalfc_loss/Mean/reduction_indices"
  input: "training/RMSprop/gradients/loss/finalfc_loss/Mean_grad/Size"
  attr {
    key: "T"
    value {
      type: DT_INT32
    }
  }
  attr {
    key: "_class"
    value {
      list {
        s: "loc:@loss/finalfc_loss/Mean"
      }
    }
  }
}
node {
  name: "training/RMSprop/gradients/loss/finalfc_loss/Mean_grad/mod"
  op: "FloorMod"
  input: "training/RMSprop/gradients/loss/finalfc_loss/Mean_grad/add"
  input: "training/RMSprop/gradients/loss/finalfc_loss/Mean_grad/Size"
  attr {
    key: "T"
    value {
      type: DT_INT32
    }
  }
  attr {
    key: "_class"
    value {
      list {
        s: "loc:@loss/finalfc_loss/Mean"
      }
    }
  }
}
node {
  name: "training/RMSprop/gradients/loss/finalfc_loss/Mean_grad/Shape_1"
  op: "Const"
  attr {
    key: "_class"
    value {
      list {
        s: "loc:@loss/finalfc_loss/Mean"
      }
    }
  }
  attr {
    key: "dtype"
    value {
      type: DT_INT32
    }
  }
  attr {
    key: "value"
    value {
      tensor {
        dtype: DT_INT32
        tensor_shape {
          dim {
            size: 1
          }
        }
        int_val: 0
      }
    }
  }
}
node {
  name: "training/RMSprop/gradients/loss/finalfc_loss/Mean_grad/range/start"
  op: "Const"
  attr {
    key: "_class"
    value {
      list {
        s: "loc:@loss/finalfc_loss/Mean"
      }
    }
  }
  attr {
    key: "dtype"
    value {
      type: DT_INT32
    }
  }
  attr {
    key: "value"
    value {
      tensor {
        dtype: DT_INT32
        tensor_shape {
        }
        int_val: 0
      }
    }
  }
}
node {
  name: "training/RMSprop/gradients/loss/finalfc_loss/Mean_grad/range/delta"
  op: "Const"
  attr {
    key: "_class"
    value {
      list {
        s: "loc:@loss/finalfc_loss/Mean"
      }
    }
  }
  attr {
    key: "dtype"
    value {
      type: DT_INT32
    }
  }
  attr {
    key: "value"
    value {
      tensor {
        dtype: DT_INT32
        tensor_shape {
        }
        int_val: 1
      }
    }
  }
}
node {
  name: "training/RMSprop/gradients/loss/finalfc_loss/Mean_grad/range"
  op: "Range"
  input: "training/RMSprop/gradients/loss/finalfc_loss/Mean_grad/range/start"
  input: "training/RMSprop/gradients/loss/finalfc_loss/Mean_grad/Size"
  input: "training/RMSprop/gradients/loss/finalfc_loss/Mean_grad/range/delta"
  attr {
    key: "Tidx"
    value {
      type: DT_INT32
    }
  }
  attr {
    key: "_class"
    value {
      list {
        s: "loc:@loss/finalfc_loss/Mean"
      }
    }
  }
}
node {
  name: "training/RMSprop/gradients/loss/finalfc_loss/Mean_grad/Fill/value"
  op: "Const"
  attr {
    key: "_class"
    value {
      list {
        s: "loc:@loss/finalfc_loss/Mean"
      }
    }
  }
  attr {
    key: "dtype"
    value {
      type: DT_INT32
    }
  }
  attr {
    key: "value"
    value {
      tensor {
        dtype: DT_INT32
        tensor_shape {
        }
        int_val: 1
      }
    }
  }
}
node {
  name: "training/RMSprop/gradients/loss/finalfc_loss/Mean_grad/Fill"
  op: "Fill"
  input: "training/RMSprop/gradients/loss/finalfc_loss/Mean_grad/Shape_1"
  input: "training/RMSprop/gradients/loss/finalfc_loss/Mean_grad/Fill/value"
  attr {
    key: "T"
    value {
      type: DT_INT32
    }
  }
  attr {
    key: "_class"
    value {
      list {
        s: "loc:@loss/finalfc_loss/Mean"
      }
    }
  }
  attr {
    key: "index_type"
    value {
      type: DT_INT32
    }
  }
}
node {
  name: "training/RMSprop/gradients/loss/finalfc_loss/Mean_grad/DynamicStitch"
  op: "DynamicStitch"
  input: "training/RMSprop/gradients/loss/finalfc_loss/Mean_grad/range"
  input: "training/RMSprop/gradients/loss/finalfc_loss/Mean_grad/mod"
  input: "training/RMSprop/gradients/loss/finalfc_loss/Mean_grad/Shape"
  input: "training/RMSprop/gradients/loss/finalfc_loss/Mean_grad/Fill"
  attr {
    key: "N"
    value {
      i: 2
    }
  }
  attr {
    key: "T"
    value {
      type: DT_INT32
    }
  }
  attr {
    key: "_class"
    value {
      list {
        s: "loc:@loss/finalfc_loss/Mean"
      }
    }
  }
}
node {
  name: "training/RMSprop/gradients/loss/finalfc_loss/Mean_grad/Maximum/y"
  op: "Const"
  attr {
    key: "_class"
    value {
      list {
        s: "loc:@loss/finalfc_loss/Mean"
      }
    }
  }
  attr {
    key: "dtype"
    value {
      type: DT_INT32
    }
  }
  attr {
    key: "value"
    value {
      tensor {
        dtype: DT_INT32
        tensor_shape {
        }
        int_val: 1
      }
    }
  }
}
node {
  name: "training/RMSprop/gradients/loss/finalfc_loss/Mean_grad/Maximum"
  op: "Maximum"
  input: "training/RMSprop/gradients/loss/finalfc_loss/Mean_grad/DynamicStitch"
  input: "training/RMSprop/gradients/loss/finalfc_loss/Mean_grad/Maximum/y"
  attr {
    key: "T"
    value {
      type: DT_INT32
    }
  }
  attr {
    key: "_class"
    value {
      list {
        s: "loc:@loss/finalfc_loss/Mean"
      }
    }
  }
}
node {
  name: "training/RMSprop/gradients/loss/finalfc_loss/Mean_grad/floordiv"
  op: "FloorDiv"
  input: "training/RMSprop/gradients/loss/finalfc_loss/Mean_grad/Shape"
  input: "training/RMSprop/gradients/loss/finalfc_loss/Mean_grad/Maximum"
  attr {
    key: "T"
    value {
      type: DT_INT32
    }
  }
  attr {
    key: "_class"
    value {
      list {
        s: "loc:@loss/finalfc_loss/Mean"
      }
    }
  }
}
node {
  name: "training/RMSprop/gradients/loss/finalfc_loss/Mean_grad/Reshape"
  op: "Reshape"
  input: "training/RMSprop/gradients/loss/finalfc_loss/mul_1_grad/Reshape"
  input: "training/RMSprop/gradients/loss/finalfc_loss/Mean_grad/DynamicStitch"
  attr {
    key: "T"
    value {
      type: DT_FLOAT
    }
  }
  attr {
    key: "Tshape"
    value {
      type: DT_INT32
    }
  }
  attr {
    key: "_class"
    value {
      list {
        s: "loc:@loss/finalfc_loss/Mean"
      }
    }
  }
}
node {
  name: "training/RMSprop/gradients/loss/finalfc_loss/Mean_grad/Tile"
  op: "Tile"
  input: "training/RMSprop/gradients/loss/finalfc_loss/Mean_grad/Reshape"
  input: "training/RMSprop/gradients/loss/finalfc_loss/Mean_grad/floordiv"
  attr {
    key: "T"
    value {
      type: DT_FLOAT
    }
  }
  attr {
    key: "Tmultiples"
    value {
      type: DT_INT32
    }
  }
  attr {
    key: "_class"
    value {
      list {
        s: "loc:@loss/finalfc_loss/Mean"
      }
    }
  }
}
node {
  name: "training/RMSprop/gradients/loss/finalfc_loss/Mean_grad/Shape_2"
  op: "Shape"
  input: "loss/finalfc_loss/Neg"
  attr {
    key: "T"
    value {
      type: DT_FLOAT
    }
  }
  attr {
    key: "_class"
    value {
      list {
        s: "loc:@loss/finalfc_loss/Mean"
      }
    }
  }
  attr {
    key: "out_type"
    value {
      type: DT_INT32
    }
  }
}
node {
  name: "training/RMSprop/gradients/loss/finalfc_loss/Mean_grad/Shape_3"
  op: "Shape"
  input: "loss/finalfc_loss/Mean"
  attr {
    key: "T"
    value {
      type: DT_FLOAT
    }
  }
  attr {
    key: "_class"
    value {
      list {
        s: "loc:@loss/finalfc_loss/Mean"
      }
    }
  }
  attr {
    key: "out_type"
    value {
      type: DT_INT32
    }
  }
}
node {
  name: "training/RMSprop/gradients/loss/finalfc_loss/Mean_grad/Const"
  op: "Const"
  attr {
    key: "_class"
    value {
      list {
        s: "loc:@loss/finalfc_loss/Mean"
      }
    }
  }
  attr {
    key: "dtype"
    value {
      type: DT_INT32
    }
  }
  attr {
    key: "value"
    value {
      tensor {
        dtype: DT_INT32
        tensor_shape {
          dim {
            size: 1
          }
        }
        int_val: 0
      }
    }
  }
}
node {
  name: "training/RMSprop/gradients/loss/finalfc_loss/Mean_grad/Prod"
  op: "Prod"
  input: "training/RMSprop/gradients/loss/finalfc_loss/Mean_grad/Shape_2"
  input: "training/RMSprop/gradients/loss/finalfc_loss/Mean_grad/Const"
  attr {
    key: "T"
    value {
      type: DT_INT32
    }
  }
  attr {
    key: "Tidx"
    value {
      type: DT_INT32
    }
  }
  attr {
    key: "_class"
    value {
      list {
        s: "loc:@loss/finalfc_loss/Mean"
      }
    }
  }
  attr {
    key: "keep_dims"
    value {
      b: false
    }
  }
}
node {
  name: "training/RMSprop/gradients/loss/finalfc_loss/Mean_grad/Const_1"
  op: "Const"
  attr {
    key: "_class"
    value {
      list {
        s: "loc:@loss/finalfc_loss/Mean"
      }
    }
  }
  attr {
    key: "dtype"
    value {
      type: DT_INT32
    }
  }
  attr {
    key: "value"
    value {
      tensor {
        dtype: DT_INT32
        tensor_shape {
          dim {
            size: 1
          }
        }
        int_val: 0
      }
    }
  }
}
node {
  name: "training/RMSprop/gradients/loss/finalfc_loss/Mean_grad/Prod_1"
  op: "Prod"
  input: "training/RMSprop/gradients/loss/finalfc_loss/Mean_grad/Shape_3"
  input: "training/RMSprop/gradients/loss/finalfc_loss/Mean_grad/Const_1"
  attr {
    key: "T"
    value {
      type: DT_INT32
    }
  }
  attr {
    key: "Tidx"
    value {
      type: DT_INT32
    }
  }
  attr {
    key: "_class"
    value {
      list {
        s: "loc:@loss/finalfc_loss/Mean"
      }
    }
  }
  attr {
    key: "keep_dims"
    value {
      b: false
    }
  }
}
node {
  name: "training/RMSprop/gradients/loss/finalfc_loss/Mean_grad/Maximum_1/y"
  op: "Const"
  attr {
    key: "_class"
    value {
      list {
        s: "loc:@loss/finalfc_loss/Mean"
      }
    }
  }
  attr {
    key: "dtype"
    value {
      type: DT_INT32
    }
  }
  attr {
    key: "value"
    value {
      tensor {
        dtype: DT_INT32
        tensor_shape {
        }
        int_val: 1
      }
    }
  }
}
node {
  name: "training/RMSprop/gradients/loss/finalfc_loss/Mean_grad/Maximum_1"
  op: "Maximum"
  input: "training/RMSprop/gradients/loss/finalfc_loss/Mean_grad/Prod_1"
  input: "training/RMSprop/gradients/loss/finalfc_loss/Mean_grad/Maximum_1/y"
  attr {
    key: "T"
    value {
      type: DT_INT32
    }
  }
  attr {
    key: "_class"
    value {
      list {
        s: "loc:@loss/finalfc_loss/Mean"
      }
    }
  }
}
node {
  name: "training/RMSprop/gradients/loss/finalfc_loss/Mean_grad/floordiv_1"
  op: "FloorDiv"
  input: "training/RMSprop/gradients/loss/finalfc_loss/Mean_grad/Prod"
  input: "training/RMSprop/gradients/loss/finalfc_loss/Mean_grad/Maximum_1"
  attr {
    key: "T"
    value {
      type: DT_INT32
    }
  }
  attr {
    key: "_class"
    value {
      list {
        s: "loc:@loss/finalfc_loss/Mean"
      }
    }
  }
}
node {
  name: "training/RMSprop/gradients/loss/finalfc_loss/Mean_grad/Cast"
  op: "Cast"
  input: "training/RMSprop/gradients/loss/finalfc_loss/Mean_grad/floordiv_1"
  attr {
    key: "DstT"
    value {
      type: DT_FLOAT
    }
  }
  attr {
    key: "SrcT"
    value {
      type: DT_INT32
    }
  }
  attr {
    key: "Truncate"
    value {
      b: false
    }
  }
  attr {
    key: "_class"
    value {
      list {
        s: "loc:@loss/finalfc_loss/Mean"
      }
    }
  }
}
node {
  name: "training/RMSprop/gradients/loss/finalfc_loss/Mean_grad/truediv"
  op: "RealDiv"
  input: "training/RMSprop/gradients/loss/finalfc_loss/Mean_grad/Tile"
  input: "training/RMSprop/gradients/loss/finalfc_loss/Mean_grad/Cast"
  attr {
    key: "T"
    value {
      type: DT_FLOAT
    }
  }
  attr {
    key: "_class"
    value {
      list {
        s: "loc:@loss/finalfc_loss/Mean"
      }
    }
  }
}
node {
  name: "training/RMSprop/gradients/loss/finalfc_loss/Neg_grad/Neg"
  op: "Neg"
  input: "training/RMSprop/gradients/loss/finalfc_loss/Mean_grad/truediv"
  attr {
    key: "T"
    value {
      type: DT_FLOAT
    }
  }
  attr {
    key: "_class"
    value {
      list {
        s: "loc:@loss/finalfc_loss/Neg"
      }
    }
  }
}
node {
  name: "training/RMSprop/gradients/loss/finalfc_loss/Sum_1_grad/Shape"
  op: "Shape"
  input: "loss/finalfc_loss/mul"
  attr {
    key: "T"
    value {
      type: DT_FLOAT
    }
  }
  attr {
    key: "_class"
    value {
      list {
        s: "loc:@loss/finalfc_loss/Sum_1"
      }
    }
  }
  attr {
    key: "out_type"
    value {
      type: DT_INT32
    }
  }
}
node {
  name: "training/RMSprop/gradients/loss/finalfc_loss/Sum_1_grad/Size"
  op: "Const"
  attr {
    key: "_class"
    value {
      list {
        s: "loc:@loss/finalfc_loss/Sum_1"
      }
    }
  }
  attr {
    key: "dtype"
    value {
      type: DT_INT32
    }
  }
  attr {
    key: "value"
    value {
      tensor {
        dtype: DT_INT32
        tensor_shape {
        }
        int_val: 2
      }
    }
  }
}
node {
  name: "training/RMSprop/gradients/loss/finalfc_loss/Sum_1_grad/add"
  op: "Add"
  input: "loss/finalfc_loss/Sum_1/reduction_indices"
  input: "training/RMSprop/gradients/loss/finalfc_loss/Sum_1_grad/Size"
  attr {
    key: "T"
    value {
      type: DT_INT32
    }
  }
  attr {
    key: "_class"
    value {
      list {
        s: "loc:@loss/finalfc_loss/Sum_1"
      }
    }
  }
}
node {
  name: "training/RMSprop/gradients/loss/finalfc_loss/Sum_1_grad/mod"
  op: "FloorMod"
  input: "training/RMSprop/gradients/loss/finalfc_loss/Sum_1_grad/add"
  input: "training/RMSprop/gradients/loss/finalfc_loss/Sum_1_grad/Size"
  attr {
    key: "T"
    value {
      type: DT_INT32
    }
  }
  attr {
    key: "_class"
    value {
      list {
        s: "loc:@loss/finalfc_loss/Sum_1"
      }
    }
  }
}
node {
  name: "training/RMSprop/gradients/loss/finalfc_loss/Sum_1_grad/Shape_1"
  op: "Const"
  attr {
    key: "_class"
    value {
      list {
        s: "loc:@loss/finalfc_loss/Sum_1"
      }
    }
  }
  attr {
    key: "dtype"
    value {
      type: DT_INT32
    }
  }
  attr {
    key: "value"
    value {
      tensor {
        dtype: DT_INT32
        tensor_shape {
          dim {
          }
        }
      }
    }
  }
}
node {
  name: "training/RMSprop/gradients/loss/finalfc_loss/Sum_1_grad/range/start"
  op: "Const"
  attr {
    key: "_class"
    value {
      list {
        s: "loc:@loss/finalfc_loss/Sum_1"
      }
    }
  }
  attr {
    key: "dtype"
    value {
      type: DT_INT32
    }
  }
  attr {
    key: "value"
    value {
      tensor {
        dtype: DT_INT32
        tensor_shape {
        }
        int_val: 0
      }
    }
  }
}
node {
  name: "training/RMSprop/gradients/loss/finalfc_loss/Sum_1_grad/range/delta"
  op: "Const"
  attr {
    key: "_class"
    value {
      list {
        s: "loc:@loss/finalfc_loss/Sum_1"
      }
    }
  }
  attr {
    key: "dtype"
    value {
      type: DT_INT32
    }
  }
  attr {
    key: "value"
    value {
      tensor {
        dtype: DT_INT32
        tensor_shape {
        }
        int_val: 1
      }
    }
  }
}
node {
  name: "training/RMSprop/gradients/loss/finalfc_loss/Sum_1_grad/range"
  op: "Range"
  input: "training/RMSprop/gradients/loss/finalfc_loss/Sum_1_grad/range/start"
  input: "training/RMSprop/gradients/loss/finalfc_loss/Sum_1_grad/Size"
  input: "training/RMSprop/gradients/loss/finalfc_loss/Sum_1_grad/range/delta"
  attr {
    key: "Tidx"
    value {
      type: DT_INT32
    }
  }
  attr {
    key: "_class"
    value {
      list {
        s: "loc:@loss/finalfc_loss/Sum_1"
      }
    }
  }
}
node {
  name: "training/RMSprop/gradients/loss/finalfc_loss/Sum_1_grad/Fill/value"
  op: "Const"
  attr {
    key: "_class"
    value {
      list {
        s: "loc:@loss/finalfc_loss/Sum_1"
      }
    }
  }
  attr {
    key: "dtype"
    value {
      type: DT_INT32
    }
  }
  attr {
    key: "value"
    value {
      tensor {
        dtype: DT_INT32
        tensor_shape {
        }
        int_val: 1
      }
    }
  }
}
node {
  name: "training/RMSprop/gradients/loss/finalfc_loss/Sum_1_grad/Fill"
  op: "Fill"
  input: "training/RMSprop/gradients/loss/finalfc_loss/Sum_1_grad/Shape_1"
  input: "training/RMSprop/gradients/loss/finalfc_loss/Sum_1_grad/Fill/value"
  attr {
    key: "T"
    value {
      type: DT_INT32
    }
  }
  attr {
    key: "_class"
    value {
      list {
        s: "loc:@loss/finalfc_loss/Sum_1"
      }
    }
  }
  attr {
    key: "index_type"
    value {
      type: DT_INT32
    }
  }
}
node {
  name: "training/RMSprop/gradients/loss/finalfc_loss/Sum_1_grad/DynamicStitch"
  op: "DynamicStitch"
  input: "training/RMSprop/gradients/loss/finalfc_loss/Sum_1_grad/range"
  input: "training/RMSprop/gradients/loss/finalfc_loss/Sum_1_grad/mod"
  input: "training/RMSprop/gradients/loss/finalfc_loss/Sum_1_grad/Shape"
  input: "training/RMSprop/gradients/loss/finalfc_loss/Sum_1_grad/Fill"
  attr {
    key: "N"
    value {
      i: 2
    }
  }
  attr {
    key: "T"
    value {
      type: DT_INT32
    }
  }
  attr {
    key: "_class"
    value {
      list {
        s: "loc:@loss/finalfc_loss/Sum_1"
      }
    }
  }
}
node {
  name: "training/RMSprop/gradients/loss/finalfc_loss/Sum_1_grad/Maximum/y"
  op: "Const"
  attr {
    key: "_class"
    value {
      list {
        s: "loc:@loss/finalfc_loss/Sum_1"
      }
    }
  }
  attr {
    key: "dtype"
    value {
      type: DT_INT32
    }
  }
  attr {
    key: "value"
    value {
      tensor {
        dtype: DT_INT32
        tensor_shape {
        }
        int_val: 1
      }
    }
  }
}
node {
  name: "training/RMSprop/gradients/loss/finalfc_loss/Sum_1_grad/Maximum"
  op: "Maximum"
  input: "training/RMSprop/gradients/loss/finalfc_loss/Sum_1_grad/DynamicStitch"
  input: "training/RMSprop/gradients/loss/finalfc_loss/Sum_1_grad/Maximum/y"
  attr {
    key: "T"
    value {
      type: DT_INT32
    }
  }
  attr {
    key: "_class"
    value {
      list {
        s: "loc:@loss/finalfc_loss/Sum_1"
      }
    }
  }
}
node {
  name: "training/RMSprop/gradients/loss/finalfc_loss/Sum_1_grad/floordiv"
  op: "FloorDiv"
  input: "training/RMSprop/gradients/loss/finalfc_loss/Sum_1_grad/Shape"
  input: "training/RMSprop/gradients/loss/finalfc_loss/Sum_1_grad/Maximum"
  attr {
    key: "T"
    value {
      type: DT_INT32
    }
  }
  attr {
    key: "_class"
    value {
      list {
        s: "loc:@loss/finalfc_loss/Sum_1"
      }
    }
  }
}
node {
  name: "training/RMSprop/gradients/loss/finalfc_loss/Sum_1_grad/Reshape"
  op: "Reshape"
  input: "training/RMSprop/gradients/loss/finalfc_loss/Neg_grad/Neg"
  input: "training/RMSprop/gradients/loss/finalfc_loss/Sum_1_grad/DynamicStitch"
  attr {
    key: "T"
    value {
      type: DT_FLOAT
    }
  }
  attr {
    key: "Tshape"
    value {
      type: DT_INT32
    }
  }
  attr {
    key: "_class"
    value {
      list {
        s: "loc:@loss/finalfc_loss/Sum_1"
      }
    }
  }
}
node {
  name: "training/RMSprop/gradients/loss/finalfc_loss/Sum_1_grad/Tile"
  op: "Tile"
  input: "training/RMSprop/gradients/loss/finalfc_loss/Sum_1_grad/Reshape"
  input: "training/RMSprop/gradients/loss/finalfc_loss/Sum_1_grad/floordiv"
  attr {
    key: "T"
    value {
      type: DT_FLOAT
    }
  }
  attr {
    key: "Tmultiples"
    value {
      type: DT_INT32
    }
  }
  attr {
    key: "_class"
    value {
      list {
        s: "loc:@loss/finalfc_loss/Sum_1"
      }
    }
  }
}
node {
  name: "training/RMSprop/gradients/loss/finalfc_loss/mul_grad/Shape"
  op: "Shape"
  input: "finalfc_target"
  attr {
    key: "T"
    value {
      type: DT_FLOAT
    }
  }
  attr {
    key: "_class"
    value {
      list {
        s: "loc:@loss/finalfc_loss/mul"
      }
    }
  }
  attr {
    key: "out_type"
    value {
      type: DT_INT32
    }
  }
}
node {
  name: "training/RMSprop/gradients/loss/finalfc_loss/mul_grad/Shape_1"
  op: "Shape"
  input: "loss/finalfc_loss/Log"
  attr {
    key: "T"
    value {
      type: DT_FLOAT
    }
  }
  attr {
    key: "_class"
    value {
      list {
        s: "loc:@loss/finalfc_loss/mul"
      }
    }
  }
  attr {
    key: "out_type"
    value {
      type: DT_INT32
    }
  }
}
node {
  name: "training/RMSprop/gradients/loss/finalfc_loss/mul_grad/BroadcastGradientArgs"
  op: "BroadcastGradientArgs"
  input: "training/RMSprop/gradients/loss/finalfc_loss/mul_grad/Shape"
  input: "training/RMSprop/gradients/loss/finalfc_loss/mul_grad/Shape_1"
  attr {
    key: "T"
    value {
      type: DT_INT32
    }
  }
  attr {
    key: "_class"
    value {
      list {
        s: "loc:@loss/finalfc_loss/mul"
      }
    }
  }
}
node {
  name: "training/RMSprop/gradients/loss/finalfc_loss/mul_grad/Mul"
  op: "Mul"
  input: "training/RMSprop/gradients/loss/finalfc_loss/Sum_1_grad/Tile"
  input: "loss/finalfc_loss/Log"
  attr {
    key: "T"
    value {
      type: DT_FLOAT
    }
  }
  attr {
    key: "_class"
    value {
      list {
        s: "loc:@loss/finalfc_loss/mul"
      }
    }
  }
}
node {
  name: "training/RMSprop/gradients/loss/finalfc_loss/mul_grad/Sum"
  op: "Sum"
  input: "training/RMSprop/gradients/loss/finalfc_loss/mul_grad/Mul"
  input: "training/RMSprop/gradients/loss/finalfc_loss/mul_grad/BroadcastGradientArgs"
  attr {
    key: "T"
    value {
      type: DT_FLOAT
    }
  }
  attr {
    key: "Tidx"
    value {
      type: DT_INT32
    }
  }
  attr {
    key: "_class"
    value {
      list {
        s: "loc:@loss/finalfc_loss/mul"
      }
    }
  }
  attr {
    key: "keep_dims"
    value {
      b: false
    }
  }
}
node {
  name: "training/RMSprop/gradients/loss/finalfc_loss/mul_grad/Reshape"
  op: "Reshape"
  input: "training/RMSprop/gradients/loss/finalfc_loss/mul_grad/Sum"
  input: "training/RMSprop/gradients/loss/finalfc_loss/mul_grad/Shape"
  attr {
    key: "T"
    value {
      type: DT_FLOAT
    }
  }
  attr {
    key: "Tshape"
    value {
      type: DT_INT32
    }
  }
  attr {
    key: "_class"
    value {
      list {
        s: "loc:@loss/finalfc_loss/mul"
      }
    }
  }
}
node {
  name: "training/RMSprop/gradients/loss/finalfc_loss/mul_grad/Mul_1"
  op: "Mul"
  input: "finalfc_target"
  input: "training/RMSprop/gradients/loss/finalfc_loss/Sum_1_grad/Tile"
  attr {
    key: "T"
    value {
      type: DT_FLOAT
    }
  }
  attr {
    key: "_class"
    value {
      list {
        s: "loc:@loss/finalfc_loss/mul"
      }
    }
  }
}
node {
  name: "training/RMSprop/gradients/loss/finalfc_loss/mul_grad/Sum_1"
  op: "Sum"
  input: "training/RMSprop/gradients/loss/finalfc_loss/mul_grad/Mul_1"
  input: "training/RMSprop/gradients/loss/finalfc_loss/mul_grad/BroadcastGradientArgs:1"
  attr {
    key: "T"
    value {
      type: DT_FLOAT
    }
  }
  attr {
    key: "Tidx"
    value {
      type: DT_INT32
    }
  }
  attr {
    key: "_class"
    value {
      list {
        s: "loc:@loss/finalfc_loss/mul"
      }
    }
  }
  attr {
    key: "keep_dims"
    value {
      b: false
    }
  }
}
node {
  name: "training/RMSprop/gradients/loss/finalfc_loss/mul_grad/Reshape_1"
  op: "Reshape"
  input: "training/RMSprop/gradients/loss/finalfc_loss/mul_grad/Sum_1"
  input: "training/RMSprop/gradients/loss/finalfc_loss/mul_grad/Shape_1"
  attr {
    key: "T"
    value {
      type: DT_FLOAT
    }
  }
  attr {
    key: "Tshape"
    value {
      type: DT_INT32
    }
  }
  attr {
    key: "_class"
    value {
      list {
        s: "loc:@loss/finalfc_loss/mul"
      }
    }
  }
}
node {
  name: "training/RMSprop/gradients/loss/finalfc_loss/Log_grad/Reciprocal"
  op: "Reciprocal"
  input: "loss/finalfc_loss/clip_by_value"
  input: "^training/RMSprop/gradients/loss/finalfc_loss/mul_grad/Reshape_1"
  attr {
    key: "T"
    value {
      type: DT_FLOAT
    }
  }
  attr {
    key: "_class"
    value {
      list {
        s: "loc:@loss/finalfc_loss/Log"
      }
    }
  }
}
node {
  name: "training/RMSprop/gradients/loss/finalfc_loss/Log_grad/mul"
  op: "Mul"
  input: "training/RMSprop/gradients/loss/finalfc_loss/mul_grad/Reshape_1"
  input: "training/RMSprop/gradients/loss/finalfc_loss/Log_grad/Reciprocal"
  attr {
    key: "T"
    value {
      type: DT_FLOAT
    }
  }
  attr {
    key: "_class"
    value {
      list {
        s: "loc:@loss/finalfc_loss/Log"
      }
    }
  }
}
node {
  name: "training/RMSprop/gradients/loss/finalfc_loss/clip_by_value_grad/Shape"
  op: "Shape"
  input: "loss/finalfc_loss/clip_by_value/Minimum"
  attr {
    key: "T"
    value {
      type: DT_FLOAT
    }
  }
  attr {
    key: "_class"
    value {
      list {
        s: "loc:@loss/finalfc_loss/clip_by_value"
      }
    }
  }
  attr {
    key: "out_type"
    value {
      type: DT_INT32
    }
  }
}
node {
  name: "training/RMSprop/gradients/loss/finalfc_loss/clip_by_value_grad/Shape_1"
  op: "Const"
  attr {
    key: "_class"
    value {
      list {
        s: "loc:@loss/finalfc_loss/clip_by_value"
      }
    }
  }
  attr {
    key: "dtype"
    value {
      type: DT_INT32
    }
  }
  attr {
    key: "value"
    value {
      tensor {
        dtype: DT_INT32
        tensor_shape {
          dim {
          }
        }
      }
    }
  }
}
node {
  name: "training/RMSprop/gradients/loss/finalfc_loss/clip_by_value_grad/Shape_2"
  op: "Shape"
  input: "training/RMSprop/gradients/loss/finalfc_loss/Log_grad/mul"
  attr {
    key: "T"
    value {
      type: DT_FLOAT
    }
  }
  attr {
    key: "_class"
    value {
      list {
        s: "loc:@loss/finalfc_loss/clip_by_value"
      }
    }
  }
  attr {
    key: "out_type"
    value {
      type: DT_INT32
    }
  }
}
node {
  name: "training/RMSprop/gradients/loss/finalfc_loss/clip_by_value_grad/zeros/Const"
  op: "Const"
  attr {
    key: "_class"
    value {
      list {
        s: "loc:@loss/finalfc_loss/clip_by_value"
      }
    }
  }
  attr {
    key: "dtype"
    value {
      type: DT_FLOAT
    }
  }
  attr {
    key: "value"
    value {
      tensor {
        dtype: DT_FLOAT
        tensor_shape {
        }
        float_val: 0.0
      }
    }
  }
}
node {
  name: "training/RMSprop/gradients/loss/finalfc_loss/clip_by_value_grad/zeros"
  op: "Fill"
  input: "training/RMSprop/gradients/loss/finalfc_loss/clip_by_value_grad/Shape_2"
  input: "training/RMSprop/gradients/loss/finalfc_loss/clip_by_value_grad/zeros/Const"
  attr {
    key: "T"
    value {
      type: DT_FLOAT
    }
  }
  attr {
    key: "_class"
    value {
      list {
        s: "loc:@loss/finalfc_loss/clip_by_value"
      }
    }
  }
  attr {
    key: "index_type"
    value {
      type: DT_INT32
    }
  }
}
node {
  name: "training/RMSprop/gradients/loss/finalfc_loss/clip_by_value_grad/GreaterEqual"
  op: "GreaterEqual"
  input: "loss/finalfc_loss/clip_by_value/Minimum"
  input: "loss/finalfc_loss/Const"
  attr {
    key: "T"
    value {
      type: DT_FLOAT
    }
  }
  attr {
    key: "_class"
    value {
      list {
        s: "loc:@loss/finalfc_loss/clip_by_value"
      }
    }
  }
}
node {
  name: "training/RMSprop/gradients/loss/finalfc_loss/clip_by_value_grad/BroadcastGradientArgs"
  op: "BroadcastGradientArgs"
  input: "training/RMSprop/gradients/loss/finalfc_loss/clip_by_value_grad/Shape"
  input: "training/RMSprop/gradients/loss/finalfc_loss/clip_by_value_grad/Shape_1"
  attr {
    key: "T"
    value {
      type: DT_INT32
    }
  }
  attr {
    key: "_class"
    value {
      list {
        s: "loc:@loss/finalfc_loss/clip_by_value"
      }
    }
  }
}
node {
  name: "training/RMSprop/gradients/loss/finalfc_loss/clip_by_value_grad/Select"
  op: "Select"
  input: "training/RMSprop/gradients/loss/finalfc_loss/clip_by_value_grad/GreaterEqual"
  input: "training/RMSprop/gradients/loss/finalfc_loss/Log_grad/mul"
  input: "training/RMSprop/gradients/loss/finalfc_loss/clip_by_value_grad/zeros"
  attr {
    key: "T"
    value {
      type: DT_FLOAT
    }
  }
  attr {
    key: "_class"
    value {
      list {
        s: "loc:@loss/finalfc_loss/clip_by_value"
      }
    }
  }
}
node {
  name: "training/RMSprop/gradients/loss/finalfc_loss/clip_by_value_grad/Select_1"
  op: "Select"
  input: "training/RMSprop/gradients/loss/finalfc_loss/clip_by_value_grad/GreaterEqual"
  input: "training/RMSprop/gradients/loss/finalfc_loss/clip_by_value_grad/zeros"
  input: "training/RMSprop/gradients/loss/finalfc_loss/Log_grad/mul"
  attr {
    key: "T"
    value {
      type: DT_FLOAT
    }
  }
  attr {
    key: "_class"
    value {
      list {
        s: "loc:@loss/finalfc_loss/clip_by_value"
      }
    }
  }
}
node {
  name: "training/RMSprop/gradients/loss/finalfc_loss/clip_by_value_grad/Sum"
  op: "Sum"
  input: "training/RMSprop/gradients/loss/finalfc_loss/clip_by_value_grad/Select"
  input: "training/RMSprop/gradients/loss/finalfc_loss/clip_by_value_grad/BroadcastGradientArgs"
  attr {
    key: "T"
    value {
      type: DT_FLOAT
    }
  }
  attr {
    key: "Tidx"
    value {
      type: DT_INT32
    }
  }
  attr {
    key: "_class"
    value {
      list {
        s: "loc:@loss/finalfc_loss/clip_by_value"
      }
    }
  }
  attr {
    key: "keep_dims"
    value {
      b: false
    }
  }
}
node {
  name: "training/RMSprop/gradients/loss/finalfc_loss/clip_by_value_grad/Reshape"
  op: "Reshape"
  input: "training/RMSprop/gradients/loss/finalfc_loss/clip_by_value_grad/Sum"
  input: "training/RMSprop/gradients/loss/finalfc_loss/clip_by_value_grad/Shape"
  attr {
    key: "T"
    value {
      type: DT_FLOAT
    }
  }
  attr {
    key: "Tshape"
    value {
      type: DT_INT32
    }
  }
  attr {
    key: "_class"
    value {
      list {
        s: "loc:@loss/finalfc_loss/clip_by_value"
      }
    }
  }
}
node {
  name: "training/RMSprop/gradients/loss/finalfc_loss/clip_by_value_grad/Sum_1"
  op: "Sum"
  input: "training/RMSprop/gradients/loss/finalfc_loss/clip_by_value_grad/Select_1"
  input: "training/RMSprop/gradients/loss/finalfc_loss/clip_by_value_grad/BroadcastGradientArgs:1"
  attr {
    key: "T"
    value {
      type: DT_FLOAT
    }
  }
  attr {
    key: "Tidx"
    value {
      type: DT_INT32
    }
  }
  attr {
    key: "_class"
    value {
      list {
        s: "loc:@loss/finalfc_loss/clip_by_value"
      }
    }
  }
  attr {
    key: "keep_dims"
    value {
      b: false
    }
  }
}
node {
  name: "training/RMSprop/gradients/loss/finalfc_loss/clip_by_value_grad/Reshape_1"
  op: "Reshape"
  input: "training/RMSprop/gradients/loss/finalfc_loss/clip_by_value_grad/Sum_1"
  input: "training/RMSprop/gradients/loss/finalfc_loss/clip_by_value_grad/Shape_1"
  attr {
    key: "T"
    value {
      type: DT_FLOAT
    }
  }
  attr {
    key: "Tshape"
    value {
      type: DT_INT32
    }
  }
  attr {
    key: "_class"
    value {
      list {
        s: "loc:@loss/finalfc_loss/clip_by_value"
      }
    }
  }
}
node {
  name: "training/RMSprop/gradients/loss/finalfc_loss/clip_by_value/Minimum_grad/Shape"
  op: "Shape"
  input: "loss/finalfc_loss/truediv"
  attr {
    key: "T"
    value {
      type: DT_FLOAT
    }
  }
  attr {
    key: "_class"
    value {
      list {
        s: "loc:@loss/finalfc_loss/clip_by_value/Minimum"
      }
    }
  }
  attr {
    key: "out_type"
    value {
      type: DT_INT32
    }
  }
}
node {
  name: "training/RMSprop/gradients/loss/finalfc_loss/clip_by_value/Minimum_grad/Shape_1"
  op: "Const"
  attr {
    key: "_class"
    value {
      list {
        s: "loc:@loss/finalfc_loss/clip_by_value/Minimum"
      }
    }
  }
  attr {
    key: "dtype"
    value {
      type: DT_INT32
    }
  }
  attr {
    key: "value"
    value {
      tensor {
        dtype: DT_INT32
        tensor_shape {
          dim {
          }
        }
      }
    }
  }
}
node {
  name: "training/RMSprop/gradients/loss/finalfc_loss/clip_by_value/Minimum_grad/Shape_2"
  op: "Shape"
  input: "training/RMSprop/gradients/loss/finalfc_loss/clip_by_value_grad/Reshape"
  attr {
    key: "T"
    value {
      type: DT_FLOAT
    }
  }
  attr {
    key: "_class"
    value {
      list {
        s: "loc:@loss/finalfc_loss/clip_by_value/Minimum"
      }
    }
  }
  attr {
    key: "out_type"
    value {
      type: DT_INT32
    }
  }
}
node {
  name: "training/RMSprop/gradients/loss/finalfc_loss/clip_by_value/Minimum_grad/zeros/Const"
  op: "Const"
  attr {
    key: "_class"
    value {
      list {
        s: "loc:@loss/finalfc_loss/clip_by_value/Minimum"
      }
    }
  }
  attr {
    key: "dtype"
    value {
      type: DT_FLOAT
    }
  }
  attr {
    key: "value"
    value {
      tensor {
        dtype: DT_FLOAT
        tensor_shape {
        }
        float_val: 0.0
      }
    }
  }
}
node {
  name: "training/RMSprop/gradients/loss/finalfc_loss/clip_by_value/Minimum_grad/zeros"
  op: "Fill"
  input: "training/RMSprop/gradients/loss/finalfc_loss/clip_by_value/Minimum_grad/Shape_2"
  input: "training/RMSprop/gradients/loss/finalfc_loss/clip_by_value/Minimum_grad/zeros/Const"
  attr {
    key: "T"
    value {
      type: DT_FLOAT
    }
  }
  attr {
    key: "_class"
    value {
      list {
        s: "loc:@loss/finalfc_loss/clip_by_value/Minimum"
      }
    }
  }
  attr {
    key: "index_type"
    value {
      type: DT_INT32
    }
  }
}
node {
  name: "training/RMSprop/gradients/loss/finalfc_loss/clip_by_value/Minimum_grad/LessEqual"
  op: "LessEqual"
  input: "loss/finalfc_loss/truediv"
  input: "loss/finalfc_loss/sub"
  attr {
    key: "T"
    value {
      type: DT_FLOAT
    }
  }
  attr {
    key: "_class"
    value {
      list {
        s: "loc:@loss/finalfc_loss/clip_by_value/Minimum"
      }
    }
  }
}
node {
  name: "training/RMSprop/gradients/loss/finalfc_loss/clip_by_value/Minimum_grad/BroadcastGradientArgs"
  op: "BroadcastGradientArgs"
  input: "training/RMSprop/gradients/loss/finalfc_loss/clip_by_value/Minimum_grad/Shape"
  input: "training/RMSprop/gradients/loss/finalfc_loss/clip_by_value/Minimum_grad/Shape_1"
  attr {
    key: "T"
    value {
      type: DT_INT32
    }
  }
  attr {
    key: "_class"
    value {
      list {
        s: "loc:@loss/finalfc_loss/clip_by_value/Minimum"
      }
    }
  }
}
node {
  name: "training/RMSprop/gradients/loss/finalfc_loss/clip_by_value/Minimum_grad/Select"
  op: "Select"
  input: "training/RMSprop/gradients/loss/finalfc_loss/clip_by_value/Minimum_grad/LessEqual"
  input: "training/RMSprop/gradients/loss/finalfc_loss/clip_by_value_grad/Reshape"
  input: "training/RMSprop/gradients/loss/finalfc_loss/clip_by_value/Minimum_grad/zeros"
  attr {
    key: "T"
    value {
      type: DT_FLOAT
    }
  }
  attr {
    key: "_class"
    value {
      list {
        s: "loc:@loss/finalfc_loss/clip_by_value/Minimum"
      }
    }
  }
}
node {
  name: "training/RMSprop/gradients/loss/finalfc_loss/clip_by_value/Minimum_grad/Select_1"
  op: "Select"
  input: "training/RMSprop/gradients/loss/finalfc_loss/clip_by_value/Minimum_grad/LessEqual"
  input: "training/RMSprop/gradients/loss/finalfc_loss/clip_by_value/Minimum_grad/zeros"
  input: "training/RMSprop/gradients/loss/finalfc_loss/clip_by_value_grad/Reshape"
  attr {
    key: "T"
    value {
      type: DT_FLOAT
    }
  }
  attr {
    key: "_class"
    value {
      list {
        s: "loc:@loss/finalfc_loss/clip_by_value/Minimum"
      }
    }
  }
}
node {
  name: "training/RMSprop/gradients/loss/finalfc_loss/clip_by_value/Minimum_grad/Sum"
  op: "Sum"
  input: "training/RMSprop/gradients/loss/finalfc_loss/clip_by_value/Minimum_grad/Select"
  input: "training/RMSprop/gradients/loss/finalfc_loss/clip_by_value/Minimum_grad/BroadcastGradientArgs"
  attr {
    key: "T"
    value {
      type: DT_FLOAT
    }
  }
  attr {
    key: "Tidx"
    value {
      type: DT_INT32
    }
  }
  attr {
    key: "_class"
    value {
      list {
        s: "loc:@loss/finalfc_loss/clip_by_value/Minimum"
      }
    }
  }
  attr {
    key: "keep_dims"
    value {
      b: false
    }
  }
}
node {
  name: "training/RMSprop/gradients/loss/finalfc_loss/clip_by_value/Minimum_grad/Reshape"
  op: "Reshape"
  input: "training/RMSprop/gradients/loss/finalfc_loss/clip_by_value/Minimum_grad/Sum"
  input: "training/RMSprop/gradients/loss/finalfc_loss/clip_by_value/Minimum_grad/Shape"
  attr {
    key: "T"
    value {
      type: DT_FLOAT
    }
  }
  attr {
    key: "Tshape"
    value {
      type: DT_INT32
    }
  }
  attr {
    key: "_class"
    value {
      list {
        s: "loc:@loss/finalfc_loss/clip_by_value/Minimum"
      }
    }
  }
}
node {
  name: "training/RMSprop/gradients/loss/finalfc_loss/clip_by_value/Minimum_grad/Sum_1"
  op: "Sum"
  input: "training/RMSprop/gradients/loss/finalfc_loss/clip_by_value/Minimum_grad/Select_1"
  input: "training/RMSprop/gradients/loss/finalfc_loss/clip_by_value/Minimum_grad/BroadcastGradientArgs:1"
  attr {
    key: "T"
    value {
      type: DT_FLOAT
    }
  }
  attr {
    key: "Tidx"
    value {
      type: DT_INT32
    }
  }
  attr {
    key: "_class"
    value {
      list {
        s: "loc:@loss/finalfc_loss/clip_by_value/Minimum"
      }
    }
  }
  attr {
    key: "keep_dims"
    value {
      b: false
    }
  }
}
node {
  name: "training/RMSprop/gradients/loss/finalfc_loss/clip_by_value/Minimum_grad/Reshape_1"
  op: "Reshape"
  input: "training/RMSprop/gradients/loss/finalfc_loss/clip_by_value/Minimum_grad/Sum_1"
  input: "training/RMSprop/gradients/loss/finalfc_loss/clip_by_value/Minimum_grad/Shape_1"
  attr {
    key: "T"
    value {
      type: DT_FLOAT
    }
  }
  attr {
    key: "Tshape"
    value {
      type: DT_INT32
    }
  }
  attr {
    key: "_class"
    value {
      list {
        s: "loc:@loss/finalfc_loss/clip_by_value/Minimum"
      }
    }
  }
}
node {
  name: "training/RMSprop/gradients/loss/finalfc_loss/truediv_grad/Shape"
  op: "Shape"
  input: "finalfc/Softmax"
  attr {
    key: "T"
    value {
      type: DT_FLOAT
    }
  }
  attr {
    key: "_class"
    value {
      list {
        s: "loc:@loss/finalfc_loss/truediv"
      }
    }
  }
  attr {
    key: "out_type"
    value {
      type: DT_INT32
    }
  }
}
node {
  name: "training/RMSprop/gradients/loss/finalfc_loss/truediv_grad/Shape_1"
  op: "Shape"
  input: "loss/finalfc_loss/Sum"
  attr {
    key: "T"
    value {
      type: DT_FLOAT
    }
  }
  attr {
    key: "_class"
    value {
      list {
        s: "loc:@loss/finalfc_loss/truediv"
      }
    }
  }
  attr {
    key: "out_type"
    value {
      type: DT_INT32
    }
  }
}
node {
  name: "training/RMSprop/gradients/loss/finalfc_loss/truediv_grad/BroadcastGradientArgs"
  op: "BroadcastGradientArgs"
  input: "training/RMSprop/gradients/loss/finalfc_loss/truediv_grad/Shape"
  input: "training/RMSprop/gradients/loss/finalfc_loss/truediv_grad/Shape_1"
  attr {
    key: "T"
    value {
      type: DT_INT32
    }
  }
  attr {
    key: "_class"
    value {
      list {
        s: "loc:@loss/finalfc_loss/truediv"
      }
    }
  }
}
node {
  name: "training/RMSprop/gradients/loss/finalfc_loss/truediv_grad/RealDiv"
  op: "RealDiv"
  input: "training/RMSprop/gradients/loss/finalfc_loss/clip_by_value/Minimum_grad/Reshape"
  input: "loss/finalfc_loss/Sum"
  attr {
    key: "T"
    value {
      type: DT_FLOAT
    }
  }
  attr {
    key: "_class"
    value {
      list {
        s: "loc:@loss/finalfc_loss/truediv"
      }
    }
  }
}
node {
  name: "training/RMSprop/gradients/loss/finalfc_loss/truediv_grad/Sum"
  op: "Sum"
  input: "training/RMSprop/gradients/loss/finalfc_loss/truediv_grad/RealDiv"
  input: "training/RMSprop/gradients/loss/finalfc_loss/truediv_grad/BroadcastGradientArgs"
  attr {
    key: "T"
    value {
      type: DT_FLOAT
    }
  }
  attr {
    key: "Tidx"
    value {
      type: DT_INT32
    }
  }
  attr {
    key: "_class"
    value {
      list {
        s: "loc:@loss/finalfc_loss/truediv"
      }
    }
  }
  attr {
    key: "keep_dims"
    value {
      b: false
    }
  }
}
node {
  name: "training/RMSprop/gradients/loss/finalfc_loss/truediv_grad/Reshape"
  op: "Reshape"
  input: "training/RMSprop/gradients/loss/finalfc_loss/truediv_grad/Sum"
  input: "training/RMSprop/gradients/loss/finalfc_loss/truediv_grad/Shape"
  attr {
    key: "T"
    value {
      type: DT_FLOAT
    }
  }
  attr {
    key: "Tshape"
    value {
      type: DT_INT32
    }
  }
  attr {
    key: "_class"
    value {
      list {
        s: "loc:@loss/finalfc_loss/truediv"
      }
    }
  }
}
node {
  name: "training/RMSprop/gradients/loss/finalfc_loss/truediv_grad/Neg"
  op: "Neg"
  input: "finalfc/Softmax"
  attr {
    key: "T"
    value {
      type: DT_FLOAT
    }
  }
  attr {
    key: "_class"
    value {
      list {
        s: "loc:@loss/finalfc_loss/truediv"
      }
    }
  }
}
node {
  name: "training/RMSprop/gradients/loss/finalfc_loss/truediv_grad/RealDiv_1"
  op: "RealDiv"
  input: "training/RMSprop/gradients/loss/finalfc_loss/truediv_grad/Neg"
  input: "loss/finalfc_loss/Sum"
  attr {
    key: "T"
    value {
      type: DT_FLOAT
    }
  }
  attr {
    key: "_class"
    value {
      list {
        s: "loc:@loss/finalfc_loss/truediv"
      }
    }
  }
}
node {
  name: "training/RMSprop/gradients/loss/finalfc_loss/truediv_grad/RealDiv_2"
  op: "RealDiv"
  input: "training/RMSprop/gradients/loss/finalfc_loss/truediv_grad/RealDiv_1"
  input: "loss/finalfc_loss/Sum"
  attr {
    key: "T"
    value {
      type: DT_FLOAT
    }
  }
  attr {
    key: "_class"
    value {
      list {
        s: "loc:@loss/finalfc_loss/truediv"
      }
    }
  }
}
node {
  name: "training/RMSprop/gradients/loss/finalfc_loss/truediv_grad/mul"
  op: "Mul"
  input: "training/RMSprop/gradients/loss/finalfc_loss/clip_by_value/Minimum_grad/Reshape"
  input: "training/RMSprop/gradients/loss/finalfc_loss/truediv_grad/RealDiv_2"
  attr {
    key: "T"
    value {
      type: DT_FLOAT
    }
  }
  attr {
    key: "_class"
    value {
      list {
        s: "loc:@loss/finalfc_loss/truediv"
      }
    }
  }
}
node {
  name: "training/RMSprop/gradients/loss/finalfc_loss/truediv_grad/Sum_1"
  op: "Sum"
  input: "training/RMSprop/gradients/loss/finalfc_loss/truediv_grad/mul"
  input: "training/RMSprop/gradients/loss/finalfc_loss/truediv_grad/BroadcastGradientArgs:1"
  attr {
    key: "T"
    value {
      type: DT_FLOAT
    }
  }
  attr {
    key: "Tidx"
    value {
      type: DT_INT32
    }
  }
  attr {
    key: "_class"
    value {
      list {
        s: "loc:@loss/finalfc_loss/truediv"
      }
    }
  }
  attr {
    key: "keep_dims"
    value {
      b: false
    }
  }
}
node {
  name: "training/RMSprop/gradients/loss/finalfc_loss/truediv_grad/Reshape_1"
  op: "Reshape"
  input: "training/RMSprop/gradients/loss/finalfc_loss/truediv_grad/Sum_1"
  input: "training/RMSprop/gradients/loss/finalfc_loss/truediv_grad/Shape_1"
  attr {
    key: "T"
    value {
      type: DT_FLOAT
    }
  }
  attr {
    key: "Tshape"
    value {
      type: DT_INT32
    }
  }
  attr {
    key: "_class"
    value {
      list {
        s: "loc:@loss/finalfc_loss/truediv"
      }
    }
  }
}
node {
  name: "training/RMSprop/gradients/loss/finalfc_loss/Sum_grad/Shape"
  op: "Shape"
  input: "finalfc/Softmax"
  attr {
    key: "T"
    value {
      type: DT_FLOAT
    }
  }
  attr {
    key: "_class"
    value {
      list {
        s: "loc:@loss/finalfc_loss/Sum"
      }
    }
  }
  attr {
    key: "out_type"
    value {
      type: DT_INT32
    }
  }
}
node {
  name: "training/RMSprop/gradients/loss/finalfc_loss/Sum_grad/Size"
  op: "Const"
  attr {
    key: "_class"
    value {
      list {
        s: "loc:@loss/finalfc_loss/Sum"
      }
    }
  }
  attr {
    key: "dtype"
    value {
      type: DT_INT32
    }
  }
  attr {
    key: "value"
    value {
      tensor {
        dtype: DT_INT32
        tensor_shape {
        }
        int_val: 2
      }
    }
  }
}
node {
  name: "training/RMSprop/gradients/loss/finalfc_loss/Sum_grad/add"
  op: "Add"
  input: "loss/finalfc_loss/Sum/reduction_indices"
  input: "training/RMSprop/gradients/loss/finalfc_loss/Sum_grad/Size"
  attr {
    key: "T"
    value {
      type: DT_INT32
    }
  }
  attr {
    key: "_class"
    value {
      list {
        s: "loc:@loss/finalfc_loss/Sum"
      }
    }
  }
}
node {
  name: "training/RMSprop/gradients/loss/finalfc_loss/Sum_grad/mod"
  op: "FloorMod"
  input: "training/RMSprop/gradients/loss/finalfc_loss/Sum_grad/add"
  input: "training/RMSprop/gradients/loss/finalfc_loss/Sum_grad/Size"
  attr {
    key: "T"
    value {
      type: DT_INT32
    }
  }
  attr {
    key: "_class"
    value {
      list {
        s: "loc:@loss/finalfc_loss/Sum"
      }
    }
  }
}
node {
  name: "training/RMSprop/gradients/loss/finalfc_loss/Sum_grad/Shape_1"
  op: "Const"
  attr {
    key: "_class"
    value {
      list {
        s: "loc:@loss/finalfc_loss/Sum"
      }
    }
  }
  attr {
    key: "dtype"
    value {
      type: DT_INT32
    }
  }
  attr {
    key: "value"
    value {
      tensor {
        dtype: DT_INT32
        tensor_shape {
          dim {
          }
        }
      }
    }
  }
}
node {
  name: "training/RMSprop/gradients/loss/finalfc_loss/Sum_grad/range/start"
  op: "Const"
  attr {
    key: "_class"
    value {
      list {
        s: "loc:@loss/finalfc_loss/Sum"
      }
    }
  }
  attr {
    key: "dtype"
    value {
      type: DT_INT32
    }
  }
  attr {
    key: "value"
    value {
      tensor {
        dtype: DT_INT32
        tensor_shape {
        }
        int_val: 0
      }
    }
  }
}
node {
  name: "training/RMSprop/gradients/loss/finalfc_loss/Sum_grad/range/delta"
  op: "Const"
  attr {
    key: "_class"
    value {
      list {
        s: "loc:@loss/finalfc_loss/Sum"
      }
    }
  }
  attr {
    key: "dtype"
    value {
      type: DT_INT32
    }
  }
  attr {
    key: "value"
    value {
      tensor {
        dtype: DT_INT32
        tensor_shape {
        }
        int_val: 1
      }
    }
  }
}
node {
  name: "training/RMSprop/gradients/loss/finalfc_loss/Sum_grad/range"
  op: "Range"
  input: "training/RMSprop/gradients/loss/finalfc_loss/Sum_grad/range/start"
  input: "training/RMSprop/gradients/loss/finalfc_loss/Sum_grad/Size"
  input: "training/RMSprop/gradients/loss/finalfc_loss/Sum_grad/range/delta"
  attr {
    key: "Tidx"
    value {
      type: DT_INT32
    }
  }
  attr {
    key: "_class"
    value {
      list {
        s: "loc:@loss/finalfc_loss/Sum"
      }
    }
  }
}
node {
  name: "training/RMSprop/gradients/loss/finalfc_loss/Sum_grad/Fill/value"
  op: "Const"
  attr {
    key: "_class"
    value {
      list {
        s: "loc:@loss/finalfc_loss/Sum"
      }
    }
  }
  attr {
    key: "dtype"
    value {
      type: DT_INT32
    }
  }
  attr {
    key: "value"
    value {
      tensor {
        dtype: DT_INT32
        tensor_shape {
        }
        int_val: 1
      }
    }
  }
}
node {
  name: "training/RMSprop/gradients/loss/finalfc_loss/Sum_grad/Fill"
  op: "Fill"
  input: "training/RMSprop/gradients/loss/finalfc_loss/Sum_grad/Shape_1"
  input: "training/RMSprop/gradients/loss/finalfc_loss/Sum_grad/Fill/value"
  attr {
    key: "T"
    value {
      type: DT_INT32
    }
  }
  attr {
    key: "_class"
    value {
      list {
        s: "loc:@loss/finalfc_loss/Sum"
      }
    }
  }
  attr {
    key: "index_type"
    value {
      type: DT_INT32
    }
  }
}
node {
  name: "training/RMSprop/gradients/loss/finalfc_loss/Sum_grad/DynamicStitch"
  op: "DynamicStitch"
  input: "training/RMSprop/gradients/loss/finalfc_loss/Sum_grad/range"
  input: "training/RMSprop/gradients/loss/finalfc_loss/Sum_grad/mod"
  input: "training/RMSprop/gradients/loss/finalfc_loss/Sum_grad/Shape"
  input: "training/RMSprop/gradients/loss/finalfc_loss/Sum_grad/Fill"
  attr {
    key: "N"
    value {
      i: 2
    }
  }
  attr {
    key: "T"
    value {
      type: DT_INT32
    }
  }
  attr {
    key: "_class"
    value {
      list {
        s: "loc:@loss/finalfc_loss/Sum"
      }
    }
  }
}
node {
  name: "training/RMSprop/gradients/loss/finalfc_loss/Sum_grad/Maximum/y"
  op: "Const"
  attr {
    key: "_class"
    value {
      list {
        s: "loc:@loss/finalfc_loss/Sum"
      }
    }
  }
  attr {
    key: "dtype"
    value {
      type: DT_INT32
    }
  }
  attr {
    key: "value"
    value {
      tensor {
        dtype: DT_INT32
        tensor_shape {
        }
        int_val: 1
      }
    }
  }
}
node {
  name: "training/RMSprop/gradients/loss/finalfc_loss/Sum_grad/Maximum"
  op: "Maximum"
  input: "training/RMSprop/gradients/loss/finalfc_loss/Sum_grad/DynamicStitch"
  input: "training/RMSprop/gradients/loss/finalfc_loss/Sum_grad/Maximum/y"
  attr {
    key: "T"
    value {
      type: DT_INT32
    }
  }
  attr {
    key: "_class"
    value {
      list {
        s: "loc:@loss/finalfc_loss/Sum"
      }
    }
  }
}
node {
  name: "training/RMSprop/gradients/loss/finalfc_loss/Sum_grad/floordiv"
  op: "FloorDiv"
  input: "training/RMSprop/gradients/loss/finalfc_loss/Sum_grad/Shape"
  input: "training/RMSprop/gradients/loss/finalfc_loss/Sum_grad/Maximum"
  attr {
    key: "T"
    value {
      type: DT_INT32
    }
  }
  attr {
    key: "_class"
    value {
      list {
        s: "loc:@loss/finalfc_loss/Sum"
      }
    }
  }
}
node {
  name: "training/RMSprop/gradients/loss/finalfc_loss/Sum_grad/Reshape"
  op: "Reshape"
  input: "training/RMSprop/gradients/loss/finalfc_loss/truediv_grad/Reshape_1"
  input: "training/RMSprop/gradients/loss/finalfc_loss/Sum_grad/DynamicStitch"
  attr {
    key: "T"
    value {
      type: DT_FLOAT
    }
  }
  attr {
    key: "Tshape"
    value {
      type: DT_INT32
    }
  }
  attr {
    key: "_class"
    value {
      list {
        s: "loc:@loss/finalfc_loss/Sum"
      }
    }
  }
}
node {
  name: "training/RMSprop/gradients/loss/finalfc_loss/Sum_grad/Tile"
  op: "Tile"
  input: "training/RMSprop/gradients/loss/finalfc_loss/Sum_grad/Reshape"
  input: "training/RMSprop/gradients/loss/finalfc_loss/Sum_grad/floordiv"
  attr {
    key: "T"
    value {
      type: DT_FLOAT
    }
  }
  attr {
    key: "Tmultiples"
    value {
      type: DT_INT32
    }
  }
  attr {
    key: "_class"
    value {
      list {
        s: "loc:@loss/finalfc_loss/Sum"
      }
    }
  }
}
node {
  name: "training/RMSprop/gradients/AddN"
  op: "AddN"
  input: "training/RMSprop/gradients/loss/finalfc_loss/truediv_grad/Reshape"
  input: "training/RMSprop/gradients/loss/finalfc_loss/Sum_grad/Tile"
  attr {
    key: "N"
    value {
      i: 2
    }
  }
  attr {
    key: "T"
    value {
      type: DT_FLOAT
    }
  }
  attr {
    key: "_class"
    value {
      list {
        s: "loc:@loss/finalfc_loss/truediv"
      }
    }
  }
}
node {
  name: "training/RMSprop/gradients/finalfc/Softmax_grad/mul"
  op: "Mul"
  input: "training/RMSprop/gradients/AddN"
  input: "finalfc/Softmax"
  attr {
    key: "T"
    value {
      type: DT_FLOAT
    }
  }
  attr {
    key: "_class"
    value {
      list {
        s: "loc:@finalfc/Softmax"
      }
    }
  }
}
node {
  name: "training/RMSprop/gradients/finalfc/Softmax_grad/Sum/reduction_indices"
  op: "Const"
  attr {
    key: "_class"
    value {
      list {
        s: "loc:@finalfc/Softmax"
      }
    }
  }
  attr {
    key: "dtype"
    value {
      type: DT_INT32
    }
  }
  attr {
    key: "value"
    value {
      tensor {
        dtype: DT_INT32
        tensor_shape {
        }
        int_val: -1
      }
    }
  }
}
node {
  name: "training/RMSprop/gradients/finalfc/Softmax_grad/Sum"
  op: "Sum"
  input: "training/RMSprop/gradients/finalfc/Softmax_grad/mul"
  input: "training/RMSprop/gradients/finalfc/Softmax_grad/Sum/reduction_indices"
  attr {
    key: "T"
    value {
      type: DT_FLOAT
    }
  }
  attr {
    key: "Tidx"
    value {
      type: DT_INT32
    }
  }
  attr {
    key: "_class"
    value {
      list {
        s: "loc:@finalfc/Softmax"
      }
    }
  }
  attr {
    key: "keep_dims"
    value {
      b: true
    }
  }
}
node {
  name: "training/RMSprop/gradients/finalfc/Softmax_grad/sub"
  op: "Sub"
  input: "training/RMSprop/gradients/AddN"
  input: "training/RMSprop/gradients/finalfc/Softmax_grad/Sum"
  attr {
    key: "T"
    value {
      type: DT_FLOAT
    }
  }
  attr {
    key: "_class"
    value {
      list {
        s: "loc:@finalfc/Softmax"
      }
    }
  }
}
node {
  name: "training/RMSprop/gradients/finalfc/Softmax_grad/mul_1"
  op: "Mul"
  input: "training/RMSprop/gradients/finalfc/Softmax_grad/sub"
  input: "finalfc/Softmax"
  attr {
    key: "T"
    value {
      type: DT_FLOAT
    }
  }
  attr {
    key: "_class"
    value {
      list {
        s: "loc:@finalfc/Softmax"
      }
    }
  }
}
node {
  name: "training/RMSprop/gradients/finalfc/BiasAdd_grad/BiasAddGrad"
  op: "BiasAddGrad"
  input: "training/RMSprop/gradients/finalfc/Softmax_grad/mul_1"
  attr {
    key: "T"
    value {
      type: DT_FLOAT
    }
  }
  attr {
    key: "_class"
    value {
      list {
        s: "loc:@finalfc/BiasAdd"
      }
    }
  }
  attr {
    key: "data_format"
    value {
      s: "NHWC"
    }
  }
}
node {
  name: "training/RMSprop/gradients/finalfc/MatMul_grad/MatMul"
  op: "MatMul"
  input: "training/RMSprop/gradients/finalfc/Softmax_grad/mul_1"
  input: "finalfc/kernel/read"
  attr {
    key: "T"
    value {
      type: DT_FLOAT
    }
  }
  attr {
    key: "_class"
    value {
      list {
        s: "loc:@finalfc/MatMul"
      }
    }
  }
  attr {
    key: "transpose_a"
    value {
      b: false
    }
  }
  attr {
    key: "transpose_b"
    value {
      b: true
    }
  }
}
node {
  name: "training/RMSprop/gradients/finalfc/MatMul_grad/MatMul_1"
  op: "MatMul"
  input: "fc256/Relu"
  input: "training/RMSprop/gradients/finalfc/Softmax_grad/mul_1"
  attr {
    key: "T"
    value {
      type: DT_FLOAT
    }
  }
  attr {
    key: "_class"
    value {
      list {
        s: "loc:@finalfc/MatMul"
      }
    }
  }
  attr {
    key: "transpose_a"
    value {
      b: true
    }
  }
  attr {
    key: "transpose_b"
    value {
      b: false
    }
  }
}
node {
  name: "training/RMSprop/gradients/fc256/Relu_grad/ReluGrad"
  op: "ReluGrad"
  input: "training/RMSprop/gradients/finalfc/MatMul_grad/MatMul"
  input: "fc256/Relu"
  attr {
    key: "T"
    value {
      type: DT_FLOAT
    }
  }
  attr {
    key: "_class"
    value {
      list {
        s: "loc:@fc256/Relu"
      }
    }
  }
}
node {
  name: "training/RMSprop/gradients/fc256/BiasAdd_grad/BiasAddGrad"
  op: "BiasAddGrad"
  input: "training/RMSprop/gradients/fc256/Relu_grad/ReluGrad"
  attr {
    key: "T"
    value {
      type: DT_FLOAT
    }
  }
  attr {
    key: "_class"
    value {
      list {
        s: "loc:@fc256/BiasAdd"
      }
    }
  }
  attr {
    key: "data_format"
    value {
      s: "NHWC"
    }
  }
}
node {
  name: "training/RMSprop/gradients/fc256/MatMul_grad/MatMul"
  op: "MatMul"
  input: "training/RMSprop/gradients/fc256/Relu_grad/ReluGrad"
  input: "fc256/kernel/read"
  attr {
    key: "T"
    value {
      type: DT_FLOAT
    }
  }
  attr {
    key: "_class"
    value {
      list {
        s: "loc:@fc256/MatMul"
      }
    }
  }
  attr {
    key: "transpose_a"
    value {
      b: false
    }
  }
  attr {
    key: "transpose_b"
    value {
      b: true
    }
  }
}
node {
  name: "training/RMSprop/gradients/fc256/MatMul_grad/MatMul_1"
  op: "MatMul"
  input: "flat/Reshape"
  input: "training/RMSprop/gradients/fc256/Relu_grad/ReluGrad"
  attr {
    key: "T"
    value {
      type: DT_FLOAT
    }
  }
  attr {
    key: "_class"
    value {
      list {
        s: "loc:@fc256/MatMul"
      }
    }
  }
  attr {
    key: "transpose_a"
    value {
      b: true
    }
  }
  attr {
    key: "transpose_b"
    value {
      b: false
    }
  }
}
node {
  name: "training/RMSprop/gradients/flat/Reshape_grad/Shape"
  op: "Shape"
  input: "thirdpool/MaxPool"
  attr {
    key: "T"
    value {
      type: DT_FLOAT
    }
  }
  attr {
    key: "_class"
    value {
      list {
        s: "loc:@flat/Reshape"
      }
    }
  }
  attr {
    key: "out_type"
    value {
      type: DT_INT32
    }
  }
}
node {
  name: "training/RMSprop/gradients/flat/Reshape_grad/Reshape"
  op: "Reshape"
  input: "training/RMSprop/gradients/fc256/MatMul_grad/MatMul"
  input: "training/RMSprop/gradients/flat/Reshape_grad/Shape"
  attr {
    key: "T"
    value {
      type: DT_FLOAT
    }
  }
  attr {
    key: "Tshape"
    value {
      type: DT_INT32
    }
  }
  attr {
    key: "_class"
    value {
      list {
        s: "loc:@flat/Reshape"
      }
    }
  }
}
node {
  name: "training/RMSprop/gradients/thirdpool/MaxPool_grad/MaxPoolGrad"
  op: "MaxPoolGrad"
  input: "thirdc2/Relu"
  input: "thirdpool/MaxPool"
  input: "training/RMSprop/gradients/flat/Reshape_grad/Reshape"
  attr {
    key: "T"
    value {
      type: DT_FLOAT
    }
  }
  attr {
    key: "_class"
    value {
      list {
        s: "loc:@thirdpool/MaxPool"
      }
    }
  }
  attr {
    key: "data_format"
    value {
      s: "NHWC"
    }
  }
  attr {
    key: "ksize"
    value {
      list {
        i: 1
        i: 2
        i: 2
        i: 1
      }
    }
  }
  attr {
    key: "padding"
    value {
      s: "VALID"
    }
  }
  attr {
    key: "strides"
    value {
      list {
        i: 1
        i: 2
        i: 2
        i: 1
      }
    }
  }
}
node {
  name: "training/RMSprop/gradients/thirdc2/Relu_grad/ReluGrad"
  op: "ReluGrad"
  input: "training/RMSprop/gradients/thirdpool/MaxPool_grad/MaxPoolGrad"
  input: "thirdc2/Relu"
  attr {
    key: "T"
    value {
      type: DT_FLOAT
    }
  }
  attr {
    key: "_class"
    value {
      list {
        s: "loc:@thirdc2/Relu"
      }
    }
  }
}
node {
  name: "training/RMSprop/gradients/thirdc2/BiasAdd_grad/BiasAddGrad"
  op: "BiasAddGrad"
  input: "training/RMSprop/gradients/thirdc2/Relu_grad/ReluGrad"
  attr {
    key: "T"
    value {
      type: DT_FLOAT
    }
  }
  attr {
    key: "_class"
    value {
      list {
        s: "loc:@thirdc2/BiasAdd"
      }
    }
  }
  attr {
    key: "data_format"
    value {
      s: "NHWC"
    }
  }
}
node {
  name: "training/RMSprop/gradients/thirdc2/convolution_grad/ShapeN"
  op: "ShapeN"
  input: "zero_padding2d_2/Pad"
  input: "thirdc2/kernel/read"
  attr {
    key: "N"
    value {
      i: 2
    }
  }
  attr {
    key: "T"
    value {
      type: DT_FLOAT
    }
  }
  attr {
    key: "_class"
    value {
      list {
        s: "loc:@thirdc2/convolution"
      }
    }
  }
  attr {
    key: "out_type"
    value {
      type: DT_INT32
    }
  }
}
node {
  name: "training/RMSprop/gradients/thirdc2/convolution_grad/Conv2DBackpropInput"
  op: "Conv2DBackpropInput"
  input: "training/RMSprop/gradients/thirdc2/convolution_grad/ShapeN"
  input: "thirdc2/kernel/read"
  input: "training/RMSprop/gradients/thirdc2/Relu_grad/ReluGrad"
  attr {
    key: "T"
    value {
      type: DT_FLOAT
    }
  }
  attr {
    key: "_class"
    value {
      list {
        s: "loc:@thirdc2/convolution"
      }
    }
  }
  attr {
    key: "data_format"
    value {
      s: "NHWC"
    }
  }
  attr {
    key: "dilations"
    value {
      list {
        i: 1
        i: 1
        i: 1
        i: 1
      }
    }
  }
  attr {
    key: "padding"
    value {
      s: "VALID"
    }
  }
  attr {
    key: "strides"
    value {
      list {
        i: 1
        i: 1
        i: 1
        i: 1
      }
    }
  }
  attr {
    key: "use_cudnn_on_gpu"
    value {
      b: true
    }
  }
}
node {
  name: "training/RMSprop/gradients/thirdc2/convolution_grad/Conv2DBackpropFilter"
  op: "Conv2DBackpropFilter"
  input: "zero_padding2d_2/Pad"
  input: "training/RMSprop/gradients/thirdc2/convolution_grad/ShapeN:1"
  input: "training/RMSprop/gradients/thirdc2/Relu_grad/ReluGrad"
  attr {
    key: "T"
    value {
      type: DT_FLOAT
    }
  }
  attr {
    key: "_class"
    value {
      list {
        s: "loc:@thirdc2/convolution"
      }
    }
  }
  attr {
    key: "data_format"
    value {
      s: "NHWC"
    }
  }
  attr {
    key: "dilations"
    value {
      list {
        i: 1
        i: 1
        i: 1
        i: 1
      }
    }
  }
  attr {
    key: "padding"
    value {
      s: "VALID"
    }
  }
  attr {
    key: "strides"
    value {
      list {
        i: 1
        i: 1
        i: 1
        i: 1
      }
    }
  }
  attr {
    key: "use_cudnn_on_gpu"
    value {
      b: true
    }
  }
}
node {
  name: "training/RMSprop/gradients/zero_padding2d_2/Pad_grad/Rank"
  op: "Const"
  attr {
    key: "_class"
    value {
      list {
        s: "loc:@zero_padding2d_2/Pad"
      }
    }
  }
  attr {
    key: "dtype"
    value {
      type: DT_INT32
    }
  }
  attr {
    key: "value"
    value {
      tensor {
        dtype: DT_INT32
        tensor_shape {
        }
        int_val: 4
      }
    }
  }
}
node {
  name: "training/RMSprop/gradients/zero_padding2d_2/Pad_grad/stack/1"
  op: "Const"
  attr {
    key: "_class"
    value {
      list {
        s: "loc:@zero_padding2d_2/Pad"
      }
    }
  }
  attr {
    key: "dtype"
    value {
      type: DT_INT32
    }
  }
  attr {
    key: "value"
    value {
      tensor {
        dtype: DT_INT32
        tensor_shape {
        }
        int_val: 1
      }
    }
  }
}
node {
  name: "training/RMSprop/gradients/zero_padding2d_2/Pad_grad/stack"
  op: "Pack"
  input: "training/RMSprop/gradients/zero_padding2d_2/Pad_grad/Rank"
  input: "training/RMSprop/gradients/zero_padding2d_2/Pad_grad/stack/1"
  attr {
    key: "N"
    value {
      i: 2
    }
  }
  attr {
    key: "T"
    value {
      type: DT_INT32
    }
  }
  attr {
    key: "_class"
    value {
      list {
        s: "loc:@zero_padding2d_2/Pad"
      }
    }
  }
  attr {
    key: "axis"
    value {
      i: 0
    }
  }
}
node {
  name: "training/RMSprop/gradients/zero_padding2d_2/Pad_grad/Slice/begin"
  op: "Const"
  attr {
    key: "_class"
    value {
      list {
        s: "loc:@zero_padding2d_2/Pad"
      }
    }
  }
  attr {
    key: "dtype"
    value {
      type: DT_INT32
    }
  }
  attr {
    key: "value"
    value {
      tensor {
        dtype: DT_INT32
        tensor_shape {
          dim {
            size: 2
          }
        }
        tensor_content: "\000\000\000\000\000\000\000\000"
      }
    }
  }
}
node {
  name: "training/RMSprop/gradients/zero_padding2d_2/Pad_grad/Slice"
  op: "Slice"
  input: "zero_padding2d_2/Pad/paddings"
  input: "training/RMSprop/gradients/zero_padding2d_2/Pad_grad/Slice/begin"
  input: "training/RMSprop/gradients/zero_padding2d_2/Pad_grad/stack"
  attr {
    key: "Index"
    value {
      type: DT_INT32
    }
  }
  attr {
    key: "T"
    value {
      type: DT_INT32
    }
  }
  attr {
    key: "_class"
    value {
      list {
        s: "loc:@zero_padding2d_2/Pad"
      }
    }
  }
}
node {
  name: "training/RMSprop/gradients/zero_padding2d_2/Pad_grad/Reshape/shape"
  op: "Const"
  attr {
    key: "_class"
    value {
      list {
        s: "loc:@zero_padding2d_2/Pad"
      }
    }
  }
  attr {
    key: "dtype"
    value {
      type: DT_INT32
    }
  }
  attr {
    key: "value"
    value {
      tensor {
        dtype: DT_INT32
        tensor_shape {
          dim {
            size: 1
          }
        }
        int_val: -1
      }
    }
  }
}
node {
  name: "training/RMSprop/gradients/zero_padding2d_2/Pad_grad/Reshape"
  op: "Reshape"
  input: "training/RMSprop/gradients/zero_padding2d_2/Pad_grad/Slice"
  input: "training/RMSprop/gradients/zero_padding2d_2/Pad_grad/Reshape/shape"
  attr {
    key: "T"
    value {
      type: DT_INT32
    }
  }
  attr {
    key: "Tshape"
    value {
      type: DT_INT32
    }
  }
  attr {
    key: "_class"
    value {
      list {
        s: "loc:@zero_padding2d_2/Pad"
      }
    }
  }
}
node {
  name: "training/RMSprop/gradients/zero_padding2d_2/Pad_grad/Shape"
  op: "Shape"
  input: "secondMaxPool/MaxPool"
  attr {
    key: "T"
    value {
      type: DT_FLOAT
    }
  }
  attr {
    key: "_class"
    value {
      list {
        s: "loc:@zero_padding2d_2/Pad"
      }
    }
  }
  attr {
    key: "out_type"
    value {
      type: DT_INT32
    }
  }
}
node {
  name: "training/RMSprop/gradients/zero_padding2d_2/Pad_grad/Slice_1"
  op: "Slice"
  input: "training/RMSprop/gradients/thirdc2/convolution_grad/Conv2DBackpropInput"
  input: "training/RMSprop/gradients/zero_padding2d_2/Pad_grad/Reshape"
  input: "training/RMSprop/gradients/zero_padding2d_2/Pad_grad/Shape"
  attr {
    key: "Index"
    value {
      type: DT_INT32
    }
  }
  attr {
    key: "T"
    value {
      type: DT_FLOAT
    }
  }
  attr {
    key: "_class"
    value {
      list {
        s: "loc:@zero_padding2d_2/Pad"
      }
    }
  }
}
node {
  name: "training/RMSprop/gradients/secondMaxPool/MaxPool_grad/MaxPoolGrad"
  op: "MaxPoolGrad"
  input: "secondConv2D/Relu"
  input: "secondMaxPool/MaxPool"
  input: "training/RMSprop/gradients/zero_padding2d_2/Pad_grad/Slice_1"
  attr {
    key: "T"
    value {
      type: DT_FLOAT
    }
  }
  attr {
    key: "_class"
    value {
      list {
        s: "loc:@secondMaxPool/MaxPool"
      }
    }
  }
  attr {
    key: "data_format"
    value {
      s: "NHWC"
    }
  }
  attr {
    key: "ksize"
    value {
      list {
        i: 1
        i: 2
        i: 2
        i: 1
      }
    }
  }
  attr {
    key: "padding"
    value {
      s: "VALID"
    }
  }
  attr {
    key: "strides"
    value {
      list {
        i: 1
        i: 2
        i: 2
        i: 1
      }
    }
  }
}
node {
  name: "training/RMSprop/gradients/secondConv2D/Relu_grad/ReluGrad"
  op: "ReluGrad"
  input: "training/RMSprop/gradients/secondMaxPool/MaxPool_grad/MaxPoolGrad"
  input: "secondConv2D/Relu"
  attr {
    key: "T"
    value {
      type: DT_FLOAT
    }
  }
  attr {
    key: "_class"
    value {
      list {
        s: "loc:@secondConv2D/Relu"
      }
    }
  }
}
node {
  name: "training/RMSprop/gradients/secondConv2D/BiasAdd_grad/BiasAddGrad"
  op: "BiasAddGrad"
  input: "training/RMSprop/gradients/secondConv2D/Relu_grad/ReluGrad"
  attr {
    key: "T"
    value {
      type: DT_FLOAT
    }
  }
  attr {
    key: "_class"
    value {
      list {
        s: "loc:@secondConv2D/BiasAdd"
      }
    }
  }
  attr {
    key: "data_format"
    value {
      s: "NHWC"
    }
  }
}
node {
  name: "training/RMSprop/gradients/secondConv2D/convolution_grad/ShapeN"
  op: "ShapeN"
  input: "zero_padding2d_1/Pad"
  input: "secondConv2D/kernel/read"
  attr {
    key: "N"
    value {
      i: 2
    }
  }
  attr {
    key: "T"
    value {
      type: DT_FLOAT
    }
  }
  attr {
    key: "_class"
    value {
      list {
        s: "loc:@secondConv2D/convolution"
      }
    }
  }
  attr {
    key: "out_type"
    value {
      type: DT_INT32
    }
  }
}
node {
  name: "training/RMSprop/gradients/secondConv2D/convolution_grad/Conv2DBackpropInput"
  op: "Conv2DBackpropInput"
  input: "training/RMSprop/gradients/secondConv2D/convolution_grad/ShapeN"
  input: "secondConv2D/kernel/read"
  input: "training/RMSprop/gradients/secondConv2D/Relu_grad/ReluGrad"
  attr {
    key: "T"
    value {
      type: DT_FLOAT
    }
  }
  attr {
    key: "_class"
    value {
      list {
        s: "loc:@secondConv2D/convolution"
      }
    }
  }
  attr {
    key: "data_format"
    value {
      s: "NHWC"
    }
  }
  attr {
    key: "dilations"
    value {
      list {
        i: 1
        i: 1
        i: 1
        i: 1
      }
    }
  }
  attr {
    key: "padding"
    value {
      s: "VALID"
    }
  }
  attr {
    key: "strides"
    value {
      list {
        i: 1
        i: 1
        i: 1
        i: 1
      }
    }
  }
  attr {
    key: "use_cudnn_on_gpu"
    value {
      b: true
    }
  }
}
node {
  name: "training/RMSprop/gradients/secondConv2D/convolution_grad/Conv2DBackpropFilter"
  op: "Conv2DBackpropFilter"
  input: "zero_padding2d_1/Pad"
  input: "training/RMSprop/gradients/secondConv2D/convolution_grad/ShapeN:1"
  input: "training/RMSprop/gradients/secondConv2D/Relu_grad/ReluGrad"
  attr {
    key: "T"
    value {
      type: DT_FLOAT
    }
  }
  attr {
    key: "_class"
    value {
      list {
        s: "loc:@secondConv2D/convolution"
      }
    }
  }
  attr {
    key: "data_format"
    value {
      s: "NHWC"
    }
  }
  attr {
    key: "dilations"
    value {
      list {
        i: 1
        i: 1
        i: 1
        i: 1
      }
    }
  }
  attr {
    key: "padding"
    value {
      s: "VALID"
    }
  }
  attr {
    key: "strides"
    value {
      list {
        i: 1
        i: 1
        i: 1
        i: 1
      }
    }
  }
  attr {
    key: "use_cudnn_on_gpu"
    value {
      b: true
    }
  }
}
node {
  name: "training/RMSprop/gradients/zero_padding2d_1/Pad_grad/Rank"
  op: "Const"
  attr {
    key: "_class"
    value {
      list {
        s: "loc:@zero_padding2d_1/Pad"
      }
    }
  }
  attr {
    key: "dtype"
    value {
      type: DT_INT32
    }
  }
  attr {
    key: "value"
    value {
      tensor {
        dtype: DT_INT32
        tensor_shape {
        }
        int_val: 4
      }
    }
  }
}
node {
  name: "training/RMSprop/gradients/zero_padding2d_1/Pad_grad/stack/1"
  op: "Const"
  attr {
    key: "_class"
    value {
      list {
        s: "loc:@zero_padding2d_1/Pad"
      }
    }
  }
  attr {
    key: "dtype"
    value {
      type: DT_INT32
    }
  }
  attr {
    key: "value"
    value {
      tensor {
        dtype: DT_INT32
        tensor_shape {
        }
        int_val: 1
      }
    }
  }
}
node {
  name: "training/RMSprop/gradients/zero_padding2d_1/Pad_grad/stack"
  op: "Pack"
  input: "training/RMSprop/gradients/zero_padding2d_1/Pad_grad/Rank"
  input: "training/RMSprop/gradients/zero_padding2d_1/Pad_grad/stack/1"
  attr {
    key: "N"
    value {
      i: 2
    }
  }
  attr {
    key: "T"
    value {
      type: DT_INT32
    }
  }
  attr {
    key: "_class"
    value {
      list {
        s: "loc:@zero_padding2d_1/Pad"
      }
    }
  }
  attr {
    key: "axis"
    value {
      i: 0
    }
  }
}
node {
  name: "training/RMSprop/gradients/zero_padding2d_1/Pad_grad/Slice/begin"
  op: "Const"
  attr {
    key: "_class"
    value {
      list {
        s: "loc:@zero_padding2d_1/Pad"
      }
    }
  }
  attr {
    key: "dtype"
    value {
      type: DT_INT32
    }
  }
  attr {
    key: "value"
    value {
      tensor {
        dtype: DT_INT32
        tensor_shape {
          dim {
            size: 2
          }
        }
        tensor_content: "\000\000\000\000\000\000\000\000"
      }
    }
  }
}
node {
  name: "training/RMSprop/gradients/zero_padding2d_1/Pad_grad/Slice"
  op: "Slice"
  input: "zero_padding2d_1/Pad/paddings"
  input: "training/RMSprop/gradients/zero_padding2d_1/Pad_grad/Slice/begin"
  input: "training/RMSprop/gradients/zero_padding2d_1/Pad_grad/stack"
  attr {
    key: "Index"
    value {
      type: DT_INT32
    }
  }
  attr {
    key: "T"
    value {
      type: DT_INT32
    }
  }
  attr {
    key: "_class"
    value {
      list {
        s: "loc:@zero_padding2d_1/Pad"
      }
    }
  }
}
node {
  name: "training/RMSprop/gradients/zero_padding2d_1/Pad_grad/Reshape/shape"
  op: "Const"
  attr {
    key: "_class"
    value {
      list {
        s: "loc:@zero_padding2d_1/Pad"
      }
    }
  }
  attr {
    key: "dtype"
    value {
      type: DT_INT32
    }
  }
  attr {
    key: "value"
    value {
      tensor {
        dtype: DT_INT32
        tensor_shape {
          dim {
            size: 1
          }
        }
        int_val: -1
      }
    }
  }
}
node {
  name: "training/RMSprop/gradients/zero_padding2d_1/Pad_grad/Reshape"
  op: "Reshape"
  input: "training/RMSprop/gradients/zero_padding2d_1/Pad_grad/Slice"
  input: "training/RMSprop/gradients/zero_padding2d_1/Pad_grad/Reshape/shape"
  attr {
    key: "T"
    value {
      type: DT_INT32
    }
  }
  attr {
    key: "Tshape"
    value {
      type: DT_INT32
    }
  }
  attr {
    key: "_class"
    value {
      list {
        s: "loc:@zero_padding2d_1/Pad"
      }
    }
  }
}
node {
  name: "training/RMSprop/gradients/zero_padding2d_1/Pad_grad/Shape"
  op: "Shape"
  input: "firstMaxPool/MaxPool"
  attr {
    key: "T"
    value {
      type: DT_FLOAT
    }
  }
  attr {
    key: "_class"
    value {
      list {
        s: "loc:@zero_padding2d_1/Pad"
      }
    }
  }
  attr {
    key: "out_type"
    value {
      type: DT_INT32
    }
  }
}
node {
  name: "training/RMSprop/gradients/zero_padding2d_1/Pad_grad/Slice_1"
  op: "Slice"
  input: "training/RMSprop/gradients/secondConv2D/convolution_grad/Conv2DBackpropInput"
  input: "training/RMSprop/gradients/zero_padding2d_1/Pad_grad/Reshape"
  input: "training/RMSprop/gradients/zero_padding2d_1/Pad_grad/Shape"
  attr {
    key: "Index"
    value {
      type: DT_INT32
    }
  }
  attr {
    key: "T"
    value {
      type: DT_FLOAT
    }
  }
  attr {
    key: "_class"
    value {
      list {
…
    key: "T"
    value {
      type: DT_FLOAT
    }
  }
}
node {
  name: "training/RMSprop/add"
  op: "Add"
  input: "training/RMSprop/mul"
  input: "training/RMSprop/mul_1"
  attr {
    key: "T"
    value {
      type: DT_FLOAT
    }
  }
}
node {
  name: "training/RMSprop/Assign"
  op: "Assign"
  input: "training/RMSprop/Variable"
  input: "training/RMSprop/add"
  attr {
    key: "T"
    value {
      type: DT_FLOAT
    }
  }
  attr {
    key: "_class"
    value {
      list {
        s: "loc:@training/RMSprop/Variable"
      }
    }
  }
  attr {
    key: "use_locking"
    value {
      b: true
    }
  }
  attr {
    key: "validate_shape"
    value {
      b: true
    }
  }
}
node {
  name: "training/RMSprop/mul_2"
  op: "Mul"
  input: "RMSprop/lr/read"
  input: "training/RMSprop/gradients/firstConv2D/convolution_grad/Conv2DBackpropFilter"
  attr {
    key: "T"
    value {
      type: DT_FLOAT
    }
  }
}
node {
  name: "training/RMSprop/Const"
  op: "Const"
  attr {
    key: "dtype"
    value {
      type: DT_FLOAT
    }
  }
  attr {
    key: "value"
    value {
      tensor {
        dtype: DT_FLOAT
        tensor_shape {
        }
        float_val: 0.0
      }
    }
  }
}
node {
  name: "training/RMSprop/Const_1"
  op: "Const"
  attr {
    key: "dtype"
    value {
      type: DT_FLOAT
    }
  }
  attr {
    key: "value"
    value {
      tensor {
        dtype: DT_FLOAT
        tensor_shape {
        }
        float_val: inf
      }
    }
  }
}
node {
  name: "training/RMSprop/clip_by_value/Minimum"
  op: "Minimum"
  input: "training/RMSprop/add"
  input: "training/RMSprop/Const_1"
  attr {
    key: "T"
    value {
      type: DT_FLOAT
    }
  }
}
node {
  name: "training/RMSprop/clip_by_value"
  op: "Maximum"
  input: "training/RMSprop/clip_by_value/Minimum"
  input: "training/RMSprop/Const"
  attr {
    key: "T"
    value {
      type: DT_FLOAT
    }
  }
}
node {
  name: "training/RMSprop/Sqrt"
  op: "Sqrt"
  input: "training/RMSprop/clip_by_value"
  attr {
    key: "T"
    value {
      type: DT_FLOAT
    }
  }
}
node {
  name: "training/RMSprop/add_1/y"
  op: "Const"
  attr {
    key: "dtype"
    value {
      type: DT_FLOAT
    }
  }
  attr {
    key: "value"
    value {
      tensor {
        dtype: DT_FLOAT
        tensor_shape {
        }
        float_val: 9.99999993922529e-09
      }
    }
  }
}
node {
  name: "training/RMSprop/add_1"
  op: "Add"
  input: "training/RMSprop/Sqrt"
  input: "training/RMSprop/add_1/y"
  attr {
    key: "T"
    value {
      type: DT_FLOAT
    }
  }
}
node {
  name: "training/RMSprop/truediv"
  op: "RealDiv"
  input: "training/RMSprop/mul_2"
  input: "training/RMSprop/add_1"
  attr {
    key: "T"
    value {
      type: DT_FLOAT
    }
  }
}
node {
  name: "training/RMSprop/sub_1"
  op: "Sub"
  input: "firstConv2D/kernel/read"
  input: "training/RMSprop/truediv"
  attr {
    key: "T"
    value {
      type: DT_FLOAT
    }
  }
}
node {
  name: "training/RMSprop/Assign_1"
  op: "Assign"
  input: "firstConv2D/kernel"
  input: "training/RMSprop/sub_1"
  attr {
    key: "T"
    value {
      type: DT_FLOAT
    }
  }
  attr {
    key: "_class"
    value {
      list {
        s: "loc:@firstConv2D/kernel"
      }
    }
  }
  attr {
    key: "use_locking"
    value {
      b: true
    }
  }
  attr {
    key: "validate_shape"
    value {
      b: true
    }
  }
}
node {
  name: "training/RMSprop/mul_3"
  op: "Mul"
  input: "RMSprop/rho/read"
  input: "training/RMSprop/Variable_1/read"
  attr {
    key: "T"
    value {
      type: DT_FLOAT
    }
  }
}
node {
  name: "training/RMSprop/sub_2/x"
  op: "Const"
  attr {
    key: "dtype"
    value {
      type: DT_FLOAT
    }
  }
  attr {
    key: "value"
    value {
      tensor {
        dtype: DT_FLOAT
        tensor_shape {
        }
        float_val: 1.0
      }
    }
  }
}
node {
  name: "training/RMSprop/sub_2"
  op: "Sub"
  input: "training/RMSprop/sub_2/x"
  input: "RMSprop/rho/read"
  attr {
    key: "T"
    value {
      type: DT_FLOAT
    }
  }
}
node {
  name: "training/RMSprop/Square_1"
  op: "Square"
  input: "training/RMSprop/gradients/firstConv2D/BiasAdd_grad/BiasAddGrad"
  attr {
    key: "T"
    value {
      type: DT_FLOAT
    }
  }
}
node {
  name: "training/RMSprop/mul_4"
  op: "Mul"
  input: "training/RMSprop/sub_2"
  input: "training/RMSprop/Square_1"
  attr {
    key: "T"
    value {
      type: DT_FLOAT
    }
  }
}
node {
  name: "training/RMSprop/add_2"
  op: "Add"
  input: "training/RMSprop/mul_3"
  input: "training/RMSprop/mul_4"
  attr {
    key: "T"
    value {
      type: DT_FLOAT
    }
  }
}
node {
  name: "training/RMSprop/Assign_2"
  op: "Assign"
  input: "training/RMSprop/Variable_1"
  input: "training/RMSprop/add_2"
  attr {
    key: "T"
    value {
      type: DT_FLOAT
    }
  }
  attr {
    key: "_class"
    value {
      list {
        s: "loc:@training/RMSprop/Variable_1"
      }
    }
  }
  attr {
    key: "use_locking"
    value {
      b: true
    }
  }
  attr {
    key: "validate_shape"
    value {
      b: true
    }
  }
}
node {
  name: "training/RMSprop/mul_5"
  op: "Mul"
  input: "RMSprop/lr/read"
  input: "training/RMSprop/gradients/firstConv2D/BiasAdd_grad/BiasAddGrad"
  attr {
    key: "T"
    value {
      type: DT_FLOAT
    }
  }
}
node {
  name: "training/RMSprop/Const_2"
  op: "Const"
  attr {
    key: "dtype"
    value {
      type: DT_FLOAT
    }
  }
  attr {
    key: "value"
    value {
      tensor {
        dtype: DT_FLOAT
        tensor_shape {
        }
        float_val: 0.0
      }
    }
  }
}
node {
  name: "training/RMSprop/Const_3"
  op: "Const"
  attr {
    key: "dtype"
    value {
      type: DT_FLOAT
    }
  }
  attr {
    key: "value"
    value {
      tensor {
        dtype: DT_FLOAT
        tensor_shape {
        }
        float_val: inf
      }
    }
  }
}
node {
  name: "training/RMSprop/clip_by_value_1/Minimum"
  op: "Minimum"
  input: "training/RMSprop/add_2"
  input: "training/RMSprop/Const_3"
  attr {
    key: "T"
    value {
      type: DT_FLOAT
    }
  }
}
node {
  name: "training/RMSprop/clip_by_value_1"
  op: "Maximum"
  input: "training/RMSprop/clip_by_value_1/Minimum"
  input: "training/RMSprop/Const_2"
  attr {
    key: "T"
    value {
      type: DT_FLOAT
    }
  }
}
node {
  name: "training/RMSprop/Sqrt_1"
  op: "Sqrt"
  input: "training/RMSprop/clip_by_value_1"
  attr {
    key: "T"
    value {
      type: DT_FLOAT
    }
  }
}
node {
  name: "training/RMSprop/add_3/y"
  op: "Const"
  attr {
    key: "dtype"
    value {
      type: DT_FLOAT
    }
  }
  attr {
    key: "value"
    value {
      tensor {
        dtype: DT_FLOAT
        tensor_shape {
        }
        float_val: 9.99999993922529e-09
      }
    }
  }
}
node {
  name: "training/RMSprop/add_3"
  op: "Add"
  input: "training/RMSprop/Sqrt_1"
  input: "training/RMSprop/add_3/y"
  attr {
    key: "T"
    value {
      type: DT_FLOAT
    }
  }
}
node {
  name: "training/RMSprop/truediv_1"
  op: "RealDiv"
  input: "training/RMSprop/mul_5"
  input: "training/RMSprop/add_3"
  attr {
    key: "T"
    value {
      type: DT_FLOAT
    }
  }
}
node {
  name: "training/RMSprop/sub_3"
  op: "Sub"
  input: "firstConv2D/bias/read"
  input: "training/RMSprop/truediv_1"
  attr {
    key: "T"
    value {
      type: DT_FLOAT
    }
  }
}
node {
  name: "training/RMSprop/Assign_3"
  op: "Assign"
  input: "firstConv2D/bias"
  input: "training/RMSprop/sub_3"
  attr {
    key: "T"
    value {
      type: DT_FLOAT
    }
  }
  attr {
    key: "_class"
    value {
      list {
        s: "loc:@firstConv2D/bias"
      }
    }
  }
  attr {
    key: "use_locking"
    value {
      b: true
    }
  }
  attr {
    key: "validate_shape"
    value {
      b: true
    }
  }
}
node {
  name: "training/RMSprop/mul_6"
  op: "Mul"
  input: "RMSprop/rho/read"
  input: "training/RMSprop/Variable_2/read"
  attr {
    key: "T"
    value {
      type: DT_FLOAT
    }
  }
}
node {
  name: "training/RMSprop/sub_4/x"
  op: "Const"
  attr {
    key: "dtype"
    value {
      type: DT_FLOAT
    }
  }
  attr {
    key: "value"
    value {
      tensor {
        dtype: DT_FLOAT
        tensor_shape {
        }
        float_val: 1.0
      }
    }
  }
}
node {
  name: "training/RMSprop/sub_4"
  op: "Sub"
  input: "training/RMSprop/sub_4/x"
  input: "RMSprop/rho/read"
  attr {
    key: "T"
    value {
      type: DT_FLOAT
    }
  }
}
node {
  name: "training/RMSprop/Square_2"
  op: "Square"
  input: "training/RMSprop/gradients/secondConv2D/convolution_grad/Conv2DBackpropFilter"
  attr {
    key: "T"
    value {
      type: DT_FLOAT
    }
  }
}
node {
  name: "training/RMSprop/mul_7"
  op: "Mul"
  input: "training/RMSprop/sub_4"
  input: "training/RMSprop/Square_2"
  attr {
    key: "T"
    value {
      type: DT_FLOAT
    }
  }
}
node {
  name: "training/RMSprop/add_4"
  op: "Add"
  input: "training/RMSprop/mul_6"
  input: "training/RMSprop/mul_7"
  attr {
    key: "T"
    value {
      type: DT_FLOAT
    }
  }
}
node {
  name: "training/RMSprop/Assign_4"
  op: "Assign"
  input: "training/RMSprop/Variable_2"
  input: "training/RMSprop/add_4"
  attr {
    key: "T"
    value {
      type: DT_FLOAT
    }
  }
  attr {
    key: "_class"
    value {
      list {
        s: "loc:@training/RMSprop/Variable_2"
      }
    }
  }
  attr {
    key: "use_locking"
    value {
      b: true
    }
  }
  attr {
    key: "validate_shape"
    value {
      b: true
    }
  }
}
node {
  name: "training/RMSprop/mul_8"
  op: "Mul"
  input: "RMSprop/lr/read"
  input: "training/RMSprop/gradients/secondConv2D/convolution_grad/Conv2DBackpropFilter"
  attr {
    key: "T"
    value {
      type: DT_FLOAT
    }
  }
}
node {
  name: "training/RMSprop/Const_4"
  op: "Const"
  attr {
    key: "dtype"
    value {
      type: DT_FLOAT
    }
  }
  attr {
    key: "value"
    value {
      tensor {
        dtype: DT_FLOAT
        tensor_shape {
        }
        float_val: 0.0
      }
    }
  }
}
node {
  name: "training/RMSprop/Const_5"
  op: "Const"
  attr {
    key: "dtype"
    value {
      type: DT_FLOAT
    }
  }
  attr {
    key: "value"
    value {
      tensor {
        dtype: DT_FLOAT
        tensor_shape {
        }
        float_val: inf
      }
    }
  }
}
node {
  name: "training/RMSprop/clip_by_value_2/Minimum"
  op: "Minimum"
  input: "training/RMSprop/add_4"
  input: "training/RMSprop/Const_5"
  attr {
    key: "T"
    value {
      type: DT_FLOAT
    }
  }
}
node {
  name: "training/RMSprop/clip_by_value_2"
  op: "Maximum"
  input: "training/RMSprop/clip_by_value_2/Minimum"
  input: "training/RMSprop/Const_4"
  attr {
    key: "T"
    value {
      type: DT_FLOAT
    }
  }
}
node {
  name: "training/RMSprop/Sqrt_2"
  op: "Sqrt"
  input: "training/RMSprop/clip_by_value_2"
  attr {
    key: "T"
    value {
      type: DT_FLOAT
    }
  }
}
node {
  name: "training/RMSprop/add_5/y"
  op: "Const"
  attr {
    key: "dtype"
    value {
      type: DT_FLOAT
    }
  }
  attr {
    key: "value"
    value {
      tensor {
        dtype: DT_FLOAT
        tensor_shape {
        }
        float_val: 9.99999993922529e-09
      }
    }
  }
}
node {
  name: "training/RMSprop/add_5"
  op: "Add"
  input: "training/RMSprop/Sqrt_2"
  input: "training/RMSprop/add_5/y"
  attr {
    key: "T"
    value {
      type: DT_FLOAT
    }
  }
}
node {
  name: "training/RMSprop/truediv_2"
  op: "RealDiv"
  input: "training/RMSprop/mul_8"
  input: "training/RMSprop/add_5"
  attr {
    key: "T"
    value {
      type: DT_FLOAT
    }
  }
}
node {
  name: "training/RMSprop/sub_5"
  op: "Sub"
  input: "secondConv2D/kernel/read"
  input: "training/RMSprop/truediv_2"
  attr {
    key: "T"
    value {
      type: DT_FLOAT
    }
  }
}
node {
  name: "training/RMSprop/Assign_5"
  op: "Assign"
  input: "secondConv2D/kernel"
  input: "training/RMSprop/sub_5"
  attr {
    key: "T"
    value {
      type: DT_FLOAT
    }
  }
  attr {
    key: "_class"
    value {
      list {
        s: "loc:@secondConv2D/kernel"
      }
    }
  }
  attr {
    key: "use_locking"
    value {
      b: true
    }
  }
  attr {
    key: "validate_shape"
    value {
      b: true
    }
  }
}
node {
  name: "training/RMSprop/mul_9"
  op: "Mul"
  input: "RMSprop/rho/read"
  input: "training/RMSprop/Variable_3/read"
  attr {
    key: "T"
    value {
      type: DT_FLOAT
    }
  }
}
node {
  name: "training/RMSprop/sub_6/x"
  op: "Const"
  attr {
    key: "dtype"
    value {
      type: DT_FLOAT
    }
  }
  attr {
    key: "value"
    value {
      tensor {
        dtype: DT_FLOAT
        tensor_shape {
        }
        float_val: 1.0
      }
    }
  }
}
node {
  name: "training/RMSprop/sub_6"
  op: "Sub"
  input: "training/RMSprop/sub_6/x"
  input: "RMSprop/rho/read"
  attr {
    key: "T"
    value {
      type: DT_FLOAT
    }
  }
}
node {
  name: "training/RMSprop/Square_3"
  op: "Square"
  input: "training/RMSprop/gradients/secondConv2D/BiasAdd_grad/BiasAddGrad"
  attr {
    key: "T"
    value {
      type: DT_FLOAT
    }
  }
}
node {
  name: "training/RMSprop/mul_10"
  op: "Mul"
  input: "training/RMSprop/sub_6"
  input: "training/RMSprop/Square_3"
  attr {
    key: "T"
    value {
      type: DT_FLOAT
    }
  }
}
node {
  name: "training/RMSprop/add_6"
  op: "Add"
  input: "training/RMSprop/mul_9"
  input: "training/RMSprop/mul_10"
  attr {
    key: "T"
    value {
      type: DT_FLOAT
    }
  }
}
node {
  name: "training/RMSprop/Assign_6"
  op: "Assign"
  input: "training/RMSprop/Variable_3"
  input: "training/RMSprop/add_6"
  attr {
    key: "T"
    value {
      type: DT_FLOAT
    }
  }
  attr {
    key: "_class"
    value {
      list {
        s: "loc:@training/RMSprop/Variable_3"
      }
    }
  }
  attr {
    key: "use_locking"
    value {
      b: true
    }
  }
  attr {
    key: "validate_shape"
    value {
      b: true
    }
  }
}
node {
  name: "training/RMSprop/mul_11"
  op: "Mul"
  input: "RMSprop/lr/read"
  input: "training/RMSprop/gradients/secondConv2D/BiasAdd_grad/BiasAddGrad"
  attr {
    key: "T"
    value {
      type: DT_FLOAT
    }
  }
}
node {
  name: "training/RMSprop/Const_6"
  op: "Const"
  attr {
    key: "dtype"
    value {
      type: DT_FLOAT
    }
  }
  attr {
    key: "value"
    value {
      tensor {
        dtype: DT_FLOAT
        tensor_shape {
        }
        float_val: 0.0
      }
    }
  }
}
node {
  name: "training/RMSprop/Const_7"
  op: "Const"
  attr {
    key: "dtype"
    value {
      type: DT_FLOAT
    }
  }
  attr {
    key: "value"
    value {
      tensor {
        dtype: DT_FLOAT
        tensor_shape {
        }
        float_val: inf
      }
    }
  }
}
node {
  name: "training/RMSprop/clip_by_value_3/Minimum"
  op: "Minimum"
  input: "training/RMSprop/add_6"
  input: "training/RMSprop/Const_7"
  attr {
    key: "T"
    value {
      type: DT_FLOAT
    }
  }
}
node {
  name: "training/RMSprop/clip_by_value_3"
  op: "Maximum"
  input: "training/RMSprop/clip_by_value_3/Minimum"
  input: "training/RMSprop/Const_6"
  attr {
    key: "T"
    value {
      type: DT_FLOAT
    }
  }
}
node {
  name: "training/RMSprop/Sqrt_3"
  op: "Sqrt"
  input: "training/RMSprop/clip_by_value_3"
  attr {
    key: "T"
    value {
      type: DT_FLOAT
    }
  }
}
node {
  name: "training/RMSprop/add_7/y"
  op: "Const"
  attr {
    key: "dtype"
    value {
      type: DT_FLOAT
    }
  }
  attr {
    key: "value"
    value {
      tensor {
        dtype: DT_FLOAT
        tensor_shape {
        }
        float_val: 9.99999993922529e-09
      }
    }
  }
}
node {
  name: "training/RMSprop/add_7"
  op: "Add"
  input: "training/RMSprop/Sqrt_3"
  input: "training/RMSprop/add_7/y"
  attr {
    key: "T"
    value {
      type: DT_FLOAT
    }
  }
}
node {
  name: "training/RMSprop/truediv_3"
  op: "RealDiv"
  input: "training/RMSprop/mul_11"
  input: "training/RMSprop/add_7"
  attr {
    key: "T"
    value {
      type: DT_FLOAT
    }
  }
}
node {
  name: "training/RMSprop/sub_7"
  op: "Sub"
  input: "secondConv2D/bias/read"
  input: "training/RMSprop/truediv_3"
  attr {
    key: "T"
    value {
      type: DT_FLOAT
    }
  }
}
node {
  name: "training/RMSprop/Assign_7"
  op: "Assign"
  input: "secondConv2D/bias"
  input: "training/RMSprop/sub_7"
  attr {
    key: "T"
    value {
      type: DT_FLOAT
    }
  }
  attr {
    key: "_class"
    value {
      list {
        s: "loc:@secondConv2D/bias"
      }
    }
  }
  attr {
    key: "use_locking"
    value {
      b: true
    }
  }
  attr {
    key: "validate_shape"
    value {
      b: true
    }
  }
}
node {
  name: "training/RMSprop/mul_12"
  op: "Mul"
  input: "RMSprop/rho/read"
  input: "training/RMSprop/Variable_4/read"
  attr {
    key: "T"
    value {
      type: DT_FLOAT
    }
  }
}
node {
  name: "training/RMSprop/sub_8/x"
  op: "Const"
  attr {
    key: "dtype"
    value {
      type: DT_FLOAT
    }
  }
  attr {
    key: "value"
    value {
      tensor {
        dtype: DT_FLOAT
        tensor_shape {
        }
        float_val: 1.0
      }
    }
  }
}
node {
  name: "training/RMSprop/sub_8"
  op: "Sub"
  input: "training/RMSprop/sub_8/x"
  input: "RMSprop/rho/read"
  attr {
    key: "T"
    value {
      type: DT_FLOAT
    }
  }
}
node {
  name: "training/RMSprop/Square_4"
  op: "Square"
  input: "training/RMSprop/gradients/thirdc2/convolution_grad/Conv2DBackpropFilter"
  attr {
    key: "T"
    value {
      type: DT_FLOAT
    }
  }
}
node {
  name: "training/RMSprop/mul_13"
  op: "Mul"
  input: "training/RMSprop/sub_8"
  input: "training/RMSprop/Square_4"
  attr {
    key: "T"
    value {
      type: DT_FLOAT
    }
  }
}
node {
  name: "training/RMSprop/add_8"
  op: "Add"
  input: "training/RMSprop/mul_12"
  input: "training/RMSprop/mul_13"
  attr {
    key: "T"
    value {
      type: DT_FLOAT
    }
  }
}
node {
  name: "training/RMSprop/Assign_8"
  op: "Assign"
  input: "training/RMSprop/Variable_4"
  input: "training/RMSprop/add_8"
  attr {
    key: "T"
    value {
      type: DT_FLOAT
    }
  }
  attr {
    key: "_class"
    value {
      list {
        s: "loc:@training/RMSprop/Variable_4"
      }
    }
  }
  attr {
    key: "use_locking"
    value {
      b: true
    }
  }
  attr {
    key: "validate_shape"
    value {
      b: true
    }
  }
}
node {
  name: "training/RMSprop/mul_14"
  op: "Mul"
  input: "RMSprop/lr/read"
  input: "training/RMSprop/gradients/thirdc2/convolution_grad/Conv2DBackpropFilter"
  attr {
    key: "T"
    value {
      type: DT_FLOAT
    }
  }
}
node {
  name: "training/RMSprop/Const_8"
  op: "Const"
  attr {
    key: "dtype"
    value {
      type: DT_FLOAT
    }
  }
  attr {
    key: "value"
    value {
      tensor {
        dtype: DT_FLOAT
        tensor_shape {
        }
        float_val: 0.0
      }
    }
  }
}
node {
  name: "training/RMSprop/Const_9"
  op: "Const"
  attr {
    key: "dtype"
    value {
      type: DT_FLOAT
    }
  }
  attr {
    key: "value"
    value {
      tensor {
        dtype: DT_FLOAT
        tensor_shape {
        }
        float_val: inf
      }
    }
  }
}
node {
  name: "training/RMSprop/clip_by_value_4/Minimum"
  op: "Minimum"
  input: "training/RMSprop/add_8"
  input: "training/RMSprop/Const_9"
  attr {
    key: "T"
    value {
      type: DT_FLOAT
    }
  }
}
node {
  name: "training/RMSprop/clip_by_value_4"
  op: "Maximum"
  input: "training/RMSprop/clip_by_value_4/Minimum"
  input: "training/RMSprop/Const_8"
  attr {
    key: "T"
    value {
      type: DT_FLOAT
    }
  }
}
node {
  name: "training/RMSprop/Sqrt_4"
  op: "Sqrt"
  input: "training/RMSprop/clip_by_value_4"
  attr {
    key: "T"
    value {
      type: DT_FLOAT
    }
  }
}
node {
  name: "training/RMSprop/add_9/y"
  op: "Const"
  attr {
    key: "dtype"
    value {
      type: DT_FLOAT
    }
  }
  attr {
    key: "value"
    value {
      tensor {
        dtype: DT_FLOAT
        tensor_shape {
        }
        float_val: 9.99999993922529e-09
      }
    }
  }
}
node {
  name: "training/RMSprop/add_9"
  op: "Add"
  input: "training/RMSprop/Sqrt_4"
  input: "training/RMSprop/add_9/y"
  attr {
    key: "T"
    value {
      type: DT_FLOAT
    }
  }
}
node {
  name: "training/RMSprop/truediv_4"
  op: "RealDiv"
  input: "training/RMSprop/mul_14"
  input: "training/RMSprop/add_9"
  attr {
    key: "T"
    value {
      type: DT_FLOAT
    }
  }
}
node {
  name: "training/RMSprop/sub_9"
  op: "Sub"
  input: "thirdc2/kernel/read"
  input: "training/RMSprop/truediv_4"
  attr {
    key: "T"
    value {
      type: DT_FLOAT
    }
  }
}
node {
  name: "training/RMSprop/Assign_9"
  op: "Assign"
  input: "thirdc2/kernel"
  input: "training/RMSprop/sub_9"
  attr {
    key: "T"
    value {
      type: DT_FLOAT
    }
  }
  attr {
    key: "_class"
    value {
      list {
        s: "loc:@thirdc2/kernel"
      }
    }
  }
  attr {
    key: "use_locking"
    value {
      b: true
    }
  }
  attr {
    key: "validate_shape"
    value {
      b: true
    }
  }
}
node {
  name: "training/RMSprop/mul_15"
  op: "Mul"
  input: "RMSprop/rho/read"
  input: "training/RMSprop/Variable_5/read"
  attr {
    key: "T"
    value {
      type: DT_FLOAT
    }
  }
}
node {
  name: "training/RMSprop/sub_10/x"
  op: "Const"
  attr {
    key: "dtype"
    value {
      type: DT_FLOAT
    }
  }
  attr {
    key: "value"
    value {
      tensor {
        dtype: DT_FLOAT
        tensor_shape {
        }
        float_val: 1.0
      }
    }
  }
}
node {
  name: "training/RMSprop/sub_10"
  op: "Sub"
  input: "training/RMSprop/sub_10/x"
  input: "RMSprop/rho/read"
  attr {
    key: "T"
    value {
      type: DT_FLOAT
    }
  }
}
node {
  name: "training/RMSprop/Square_5"
  op: "Square"
  input: "training/RMSprop/gradients/thirdc2/BiasAdd_grad/BiasAddGrad"
  attr {
    key: "T"
    value {
      type: DT_FLOAT
    }
  }
}
node {
  name: "training/RMSprop/mul_16"
  op: "Mul"
  input: "training/RMSprop/sub_10"
  input: "training/RMSprop/Square_5"
  attr {
    key: "T"
    value {
      type: DT_FLOAT
    }
  }
}
node {
  name: "training/RMSprop/add_10"
  op: "Add"
  input: "training/RMSprop/mul_15"
  input: "training/RMSprop/mul_16"
  attr {
    key: "T"
    value {
      type: DT_FLOAT
    }
  }
}
node {
  name: "training/RMSprop/Assign_10"
  op: "Assign"
  input: "training/RMSprop/Variable_5"
  input: "training/RMSprop/add_10"
  attr {
    key: "T"
    value {
      type: DT_FLOAT
    }
  }
  attr {
    key: "_class"
    value {
      list {
        s: "loc:@training/RMSprop/Variable_5"
      }
    }
  }
  attr {
    key: "use_locking"
    value {
      b: true
    }
  }
  attr {
    key: "validate_shape"
    value {
      b: true
    }
  }
}
node {
  name: "training/RMSprop/mul_17"
  op: "Mul"
  input: "RMSprop/lr/read"
  input: "training/RMSprop/gradients/thirdc2/BiasAdd_grad/BiasAddGrad"
  attr {
    key: "T"
    value {
      type: DT_FLOAT
    }
  }
}
node {
  name: "training/RMSprop/Const_10"
  op: "Const"
  attr {
    key: "dtype"
    value {
      type: DT_FLOAT
    }
  }
  attr {
    key: "value"
    value {
      tensor {
        dtype: DT_FLOAT
        tensor_shape {
        }
        float_val: 0.0
      }
    }
  }
}
node {
  name: "training/RMSprop/Const_11"
  op: "Const"
  attr {
    key: "dtype"
    value {
      type: DT_FLOAT
    }
  }
  attr {
    key: "value"
    value {
      tensor {
        dtype: DT_FLOAT
        tensor_shape {
        }
        float_val: inf
      }
    }
  }
}
node {
  name: "training/RMSprop/clip_by_value_5/Minimum"
  op: "Minimum"
  input: "training/RMSprop/add_10"
  input: "training/RMSprop/Const_11"
  attr {
    key: "T"
    value {
      type: DT_FLOAT
    }
  }
}
node {
  name: "training/RMSprop/clip_by_value_5"
  op: "Maximum"
  input: "training/RMSprop/clip_by_value_5/Minimum"
  input: "training/RMSprop/Const_10"
  attr {
    key: "T"
    value {
      type: DT_FLOAT
    }
  }
}
node {
  name: "training/RMSprop/Sqrt_5"
  op: "Sqrt"
  input: "training/RMSprop/clip_by_value_5"
  attr {
    key: "T"
    value {
      type: DT_FLOAT
    }
  }
}
node {
  name: "training/RMSprop/add_11/y"
  op: "Const"
  attr {
    key: "dtype"
    value {
      type: DT_FLOAT
    }
  }
  attr {
    key: "value"
    value {
      tensor {
        dtype: DT_FLOAT
        tensor_shape {
        }
        float_val: 9.99999993922529e-09
      }
    }
  }
}
node {
  name: "training/RMSprop/add_11"
  op: "Add"
  input: "training/RMSprop/Sqrt_5"
  input: "training/RMSprop/add_11/y"
  attr {
    key: "T"
    value {
      type: DT_FLOAT
    }
  }
}
node {
  name: "training/RMSprop/truediv_5"
  op: "RealDiv"
  input: "training/RMSprop/mul_17"
  input: "training/RMSprop/add_11"
  attr {
    key: "T"
    value {
      type: DT_FLOAT
    }
  }
}
node {
  name: "training/RMSprop/sub_11"
  op: "Sub"
  input: "thirdc2/bias/read"
  input: "training/RMSprop/truediv_5"
  attr {
    key: "T"
    value {
      type: DT_FLOAT
    }
  }
}
node {
  name: "training/RMSprop/Assign_11"
  op: "Assign"
  input: "thirdc2/bias"
  input: "training/RMSprop/sub_11"
  attr {
    key: "T"
    value {
      type: DT_FLOAT
    }
  }
  attr {
    key: "_class"
    value {
      list {
        s: "loc:@thirdc2/bias"
      }
    }
  }
  attr {
    key: "use_locking"
    value {
      b: true
    }
  }
  attr {
    key: "validate_shape"
    value {
      b: true
    }
  }
}
node {
  name: "training/RMSprop/mul_18"
  op: "Mul"
  input: "RMSprop/rho/read"
  input: "training/RMSprop/Variable_6/read"
  attr {
    key: "T"
    value {
      type: DT_FLOAT
    }
  }
}
node {
  name: "training/RMSprop/sub_12/x"
  op: "Const"
  attr {
    key: "dtype"
    value {
      type: DT_FLOAT
    }
  }
  attr {
    key: "value"
    value {
      tensor {
        dtype: DT_FLOAT
        tensor_shape {
        }
        float_val: 1.0
      }
    }
  }
}
node {
  name: "training/RMSprop/sub_12"
  op: "Sub"
  input: "training/RMSprop/sub_12/x"
  input: "RMSprop/rho/read"
  attr {
    key: "T"
    value {
      type: DT_FLOAT
    }
  }
}
node {
  name: "training/RMSprop/Square_6"
  op: "Square"
  input: "training/RMSprop/gradients/fc256/MatMul_grad/MatMul_1"
  attr {
    key: "T"
    value {
      type: DT_FLOAT
    }
  }
}
node {
  name: "training/RMSprop/mul_19"
  op: "Mul"
  input: "training/RMSprop/sub_12"
  input: "training/RMSprop/Square_6"
  attr {
    key: "T"
    value {
      type: DT_FLOAT
    }
  }
}
node {
  name: "training/RMSprop/add_12"
  op: "Add"
  input: "training/RMSprop/mul_18"
  input: "training/RMSprop/mul_19"
  attr {
    key: "T"
    value {
      type: DT_FLOAT
    }
  }
}
node {
  name: "training/RMSprop/Assign_12"
  op: "Assign"
  input: "training/RMSprop/Variable_6"
  input: "training/RMSprop/add_12"
  attr {
    key: "T"
    value {
      type: DT_FLOAT
    }
  }
  attr {
    key: "_class"
    value {
      list {
        s: "loc:@training/RMSprop/Variable_6"
      }
    }
  }
  attr {
    key: "use_locking"
    value {
      b: true
    }
  }
  attr {
    key: "validate_shape"
    value {
      b: true
    }
  }
}
node {
  name: "training/RMSprop/mul_20"
  op: "Mul"
  input: "RMSprop/lr/read"
  input: "training/RMSprop/gradients/fc256/MatMul_grad/MatMul_1"
  attr {
    key: "T"
    value {
      type: DT_FLOAT
    }
  }
}
node {
  name: "training/RMSprop/Const_12"
  op: "Const"
  attr {
    key: "dtype"
    value {
      type: DT_FLOAT
    }
  }
  attr {
    key: "value"
    value {
      tensor {
        dtype: DT_FLOAT
        tensor_shape {
        }
        float_val: 0.0
      }
    }
  }
}
node {
  name: "training/RMSprop/Const_13"
  op: "Const"
  attr {
    key: "dtype"
    value {
      type: DT_FLOAT
    }
  }
  attr {
    key: "value"
    value {
      tensor {
        dtype: DT_FLOAT
        tensor_shape {
        }
        float_val: inf
      }
    }
  }
}
node {
  name: "training/RMSprop/clip_by_value_6/Minimum"
  op: "Minimum"
  input: "training/RMSprop/add_12"
  input: "training/RMSprop/Const_13"
  attr {
    key: "T"
    value {
      type: DT_FLOAT
    }
  }
}
node {
  name: "training/RMSprop/clip_by_value_6"
  op: "Maximum"
  input: "training/RMSprop/clip_by_value_6/Minimum"
  input: "training/RMSprop/Const_12"
  attr {
    key: "T"
    value {
      type: DT_FLOAT
    }
  }
}
node {
  name: "training/RMSprop/Sqrt_6"
  op: "Sqrt"
  input: "training/RMSprop/clip_by_value_6"
  attr {
    key: "T"
    value {
      type: DT_FLOAT
    }
  }
}
node {
  name: "training/RMSprop/add_13/y"
  op: "Const"
  attr {
    key: "dtype"
    value {
      type: DT_FLOAT
    }
  }
  attr {
    key: "value"
    value {
      tensor {
        dtype: DT_FLOAT
        tensor_shape {
        }
        float_val: 9.99999993922529e-09
      }
    }
  }
}
node {
  name: "training/RMSprop/add_13"
  op: "Add"
  input: "training/RMSprop/Sqrt_6"
  input: "training/RMSprop/add_13/y"
  attr {
    key: "T"
    value {
      type: DT_FLOAT
    }
  }
}
node {
  name: "training/RMSprop/truediv_6"
  op: "RealDiv"
  input: "training/RMSprop/mul_20"
  input: "training/RMSprop/add_13"
  attr {
    key: "T"
    value {
      type: DT_FLOAT
    }
  }
}
node {
  name: "training/RMSprop/sub_13"
  op: "Sub"
  input: "fc256/kernel/read"
  input: "training/RMSprop/truediv_6"
  attr {
    key: "T"
    value {
      type: DT_FLOAT
    }
  }
}
node {
  name: "training/RMSprop/Assign_13"
  op: "Assign"
  input: "fc256/kernel"
  input: "training/RMSprop/sub_13"
  attr {
    key: "T"
    value {
      type: DT_FLOAT
    }
  }
  attr {
    key: "_class"
    value {
      list {
        s: "loc:@fc256/kernel"
      }
    }
  }
  attr {
    key: "use_locking"
    value {
      b: true
    }
  }
  attr {
    key: "validate_shape"
    value {
      b: true
    }
  }
}
node {
  name: "training/RMSprop/mul_21"
  op: "Mul"
  input: "RMSprop/rho/read"
  input: "training/RMSprop/Variable_7/read"
  attr {
    key: "T"
    value {
      type: DT_FLOAT
    }
  }
}
node {
  name: "training/RMSprop/sub_14/x"
  op: "Const"
  attr {
    key: "dtype"
    value {
      type: DT_FLOAT
    }
  }
  attr {
    key: "value"
    value {
      tensor {
        dtype: DT_FLOAT
        tensor_shape {
        }
        float_val: 1.0
      }
    }
  }
}
node {
  name: "training/RMSprop/sub_14"
  op: "Sub"
  input: "training/RMSprop/sub_14/x"
  input: "RMSprop/rho/read"
  attr {
    key: "T"
    value {
      type: DT_FLOAT
    }
  }
}
node {
  name: "training/RMSprop/Square_7"
  op: "Square"
  input: "training/RMSprop/gradients/fc256/BiasAdd_grad/BiasAddGrad"
  attr {
    key: "T"
    value {
      type: DT_FLOAT
    }
  }
}
node {
  name: "training/RMSprop/mul_22"
  op: "Mul"
  input: "training/RMSprop/sub_14"
  input: "training/RMSprop/Square_7"
  attr {
    key: "T"
    value {
      type: DT_FLOAT
    }
  }
}
node {
  name: "training/RMSprop/add_14"
  op: "Add"
  input: "training/RMSprop/mul_21"
  input: "training/RMSprop/mul_22"
  attr {
    key: "T"
    value {
      type: DT_FLOAT
    }
  }
}
node {
  name: "training/RMSprop/Assign_14"
  op: "Assign"
  input: "training/RMSprop/Variable_7"
  input: "training/RMSprop/add_14"
  attr {
    key: "T"
    value {
      type: DT_FLOAT
    }
  }
  attr {
    key: "_class"
    value {
      list {
        s: "loc:@training/RMSprop/Variable_7"
      }
    }
  }
  attr {
    key: "use_locking"
    value {
      b: true
    }
  }
  attr {
    key: "validate_shape"
    value {
      b: true
    }
  }
}
node {
  name: "training/RMSprop/mul_23"
  op: "Mul"
  input: "RMSprop/lr/read"
  input: "training/RMSprop/gradients/fc256/BiasAdd_grad/BiasAddGrad"
  attr {
    key: "T"
    value {
      type: DT_FLOAT
    }
  }
}
node {
  name: "training/RMSprop/Const_14"
  op: "Const"
  attr {
    key: "dtype"
    value {
      type: DT_FLOAT
    }
  }
  attr {
    key: "value"
    value {
      tensor {
        dtype: DT_FLOAT
        tensor_shape {
        }
        float_val: 0.0
      }
    }
  }
}
node {
  name: "training/RMSprop/Const_15"
  op: "Const"
  attr {
    key: "dtype"
    value {
      type: DT_FLOAT
    }
  }
  attr {
    key: "value"
    value {
      tensor {
        dtype: DT_FLOAT
        tensor_shape {
        }
        float_val: inf
      }
    }
  }
}
node {
  name: "training/RMSprop/clip_by_value_7/Minimum"
  op: "Minimum"
  input: "training/RMSprop/add_14"
  input: "training/RMSprop/Const_15"
  attr {
    key: "T"
    value {
      type: DT_FLOAT
    }
  }
}
node {
  name: "training/RMSprop/clip_by_value_7"
  op: "Maximum"
  input: "training/RMSprop/clip_by_value_7/Minimum"
  input: "training/RMSprop/Const_14"
  attr {
    key: "T"
    value {
      type: DT_FLOAT
    }
  }
}
node {
  name: "training/RMSprop/Sqrt_7"
  op: "Sqrt"
  input: "training/RMSprop/clip_by_value_7"
  attr {
    key: "T"
    value {
      type: DT_FLOAT
    }
  }
}
node {
  name: "training/RMSprop/add_15/y"
  op: "Const"
  attr {
    key: "dtype"
    value {
      type: DT_FLOAT
    }
  }
  attr {
    key: "value"
    value {
      tensor {
        dtype: DT_FLOAT
        tensor_shape {
        }
        float_val: 9.99999993922529e-09
      }
    }
  }
}
node {
  name: "training/RMSprop/add_15"
  op: "Add"
  input: "training/RMSprop/Sqrt_7"
  input: "training/RMSprop/add_15/y"
  attr {
    key: "T"
    value {
      type: DT_FLOAT
    }
  }
}
node {
  name: "training/RMSprop/truediv_7"
  op: "RealDiv"
  input: "training/RMSprop/mul_23"
  input: "training/RMSprop/add_15"
  attr {
    key: "T"
    value {
      type: DT_FLOAT
    }
  }
}
node {
  name: "training/RMSprop/sub_15"
  op: "Sub"
  input: "fc256/bias/read"
  input: "training/RMSprop/truediv_7"
  attr {
    key: "T"
    value {
      type: DT_FLOAT
    }
  }
}
node {
  name: "training/RMSprop/Assign_15"
  op: "Assign"
  input: "fc256/bias"
  input: "training/RMSprop/sub_15"
  attr {
    key: "T"
    value {
      type: DT_FLOAT
    }
  }
  attr {
    key: "_class"
    value {
      list {
        s: "loc:@fc256/bias"
      }
    }
  }
  attr {
    key: "use_locking"
    value {
      b: true
    }
  }
  attr {
    key: "validate_shape"
    value {
      b: true
    }
  }
}
node {
  name: "training/RMSprop/mul_24"
  op: "Mul"
  input: "RMSprop/rho/read"
  input: "training/RMSprop/Variable_8/read"
  attr {
    key: "T"
    value {
      type: DT_FLOAT
    }
  }
}
node {
  name: "training/RMSprop/sub_16/x"
  op: "Const"
  attr {
    key: "dtype"
    value {
      type: DT_FLOAT
    }
  }
  attr {
    key: "value"
    value {
      tensor {
        dtype: DT_FLOAT
        tensor_shape {
        }
        float_val: 1.0
      }
    }
  }
}
node {
  name: "training/RMSprop/sub_16"
  op: "Sub"
  input: "training/RMSprop/sub_16/x"
  input: "RMSprop/rho/read"
  attr {
    key: "T"
    value {
      type: DT_FLOAT
    }
  }
}
node {
  name: "training/RMSprop/Square_8"
  op: "Square"
  input: "training/RMSprop/gradients/finalfc/MatMul_grad/MatMul_1"
  attr {
    key: "T"
    value {
      type: DT_FLOAT
    }
  }
}
node {
  name: "training/RMSprop/mul_25"
  op: "Mul"
  input: "training/RMSprop/sub_16"
  input: "training/RMSprop/Square_8"
  attr {
    key: "T"
    value {
      type: DT_FLOAT
    }
  }
}
node {
  name: "training/RMSprop/add_16"
  op: "Add"
  input: "training/RMSprop/mul_24"
  input: "training/RMSprop/mul_25"
  attr {
    key: "T"
    value {
      type: DT_FLOAT
    }
  }
}
node {
  name: "training/RMSprop/Assign_16"
  op: "Assign"
  input: "training/RMSprop/Variable_8"
  input: "training/RMSprop/add_16"
  attr {
    key: "T"
    value {
      type: DT_FLOAT
    }
  }
  attr {
    key: "_class"
    value {
      list {
        s: "loc:@training/RMSprop/Variable_8"
      }
    }
  }
  attr {
    key: "use_locking"
    value {
      b: true
    }
  }
  attr {
    key: "validate_shape"
    value {
      b: true
    }
  }
}
node {
  name: "training/RMSprop/mul_26"
  op: "Mul"
  input: "RMSprop/lr/read"
  input: "training/RMSprop/gradients/finalfc/MatMul_grad/MatMul_1"
  attr {
    key: "T"
    value {
      type: DT_FLOAT
    }
  }
}
node {
  name: "training/RMSprop/Const_16"
  op: "Const"
  attr {
    key: "dtype"
    value {
      type: DT_FLOAT
    }
  }
  attr {
    key: "value"
    value {
      tensor {
        dtype: DT_FLOAT
        tensor_shape {
        }
        float_val: 0.0
      }
    }
  }
}
node {
  name: "training/RMSprop/Const_17"
  op: "Const"
  attr {
    key: "dtype"
    value {
      type: DT_FLOAT
    }
  }
  attr {
    key: "value"
    value {
      tensor {
        dtype: DT_FLOAT
        tensor_shape {
        }
        float_val: inf
      }
    }
  }
}
node {
  name: "training/RMSprop/clip_by_value_8/Minimum"
  op: "Minimum"
  input: "training/RMSprop/add_16"
  input: "training/RMSprop/Const_17"
  attr {
    key: "T"
    value {
      type: DT_FLOAT
    }
  }
}
node {
  name: "training/RMSprop/clip_by_value_8"
  op: "Maximum"
  input: "training/RMSprop/clip_by_value_8/Minimum"
  input: "training/RMSprop/Const_16"
  attr {
    key: "T"
    value {
      type: DT_FLOAT
    }
  }
}
node {
  name: "training/RMSprop/Sqrt_8"
  op: "Sqrt"
  input: "training/RMSprop/clip_by_value_8"
  attr {
    key: "T"
    value {
      type: DT_FLOAT
    }
  }
}
node {
  name: "training/RMSprop/add_17/y"
  op: "Const"
  attr {
    key: "dtype"
    value {
      type: DT_FLOAT
    }
  }
  attr {
    key: "value"
    value {
      tensor {
        dtype: DT_FLOAT
        tensor_shape {
        }
        float_val: 9.99999993922529e-09
      }
    }
  }
}
node {
  name: "training/RMSprop/add_17"
  op: "Add"
  input: "training/RMSprop/Sqrt_8"
  input: "training/RMSprop/add_17/y"
  attr {
    key: "T"
    value {
      type: DT_FLOAT
    }
  }
}
node {
  name: "training/RMSprop/truediv_8"
  op: "RealDiv"
  input: "training/RMSprop/mul_26"
  input: "training/RMSprop/add_17"
  attr {
    key: "T"
    value {
      type: DT_FLOAT
    }
  }
}
node {
  name: "training/RMSprop/sub_17"
  op: "Sub"
  input: "finalfc/kernel/read"
  input: "training/RMSprop/truediv_8"
  attr {
    key: "T"
    value {
      type: DT_FLOAT
    }
  }
}
node {
  name: "training/RMSprop/Assign_17"
  op: "Assign"
  input: "finalfc/kernel"
  input: "training/RMSprop/sub_17"
  attr {
    key: "T"
    value {
      type: DT_FLOAT
    }
  }
  attr {
    key: "_class"
    value {
      list {
        s: "loc:@finalfc/kernel"
      }
    }
  }
  attr {
    key: "use_locking"
    value {
      b: true
    }
  }
  attr {
    key: "validate_shape"
    value {
      b: true
    }
  }
}
node {
  name: "training/RMSprop/mul_27"
  op: "Mul"
  input: "RMSprop/rho/read"
  input: "training/RMSprop/Variable_9/read"
  attr {
    key: "T"
    value {
      type: DT_FLOAT
    }
  }
}
node {
  name: "training/RMSprop/sub_18/x"
  op: "Const"
  attr {
    key: "dtype"
    value {
      type: DT_FLOAT
    }
  }
  attr {
    key: "value"
    value {
      tensor {
        dtype: DT_FLOAT
        tensor_shape {
        }
        float_val: 1.0
      }
    }
  }
}
node {
  name: "training/RMSprop/sub_18"
  op: "Sub"
  input: "training/RMSprop/sub_18/x"
  input: "RMSprop/rho/read"
  attr {
    key: "T"
    value {
      type: DT_FLOAT
    }
  }
}
node {
  name: "training/RMSprop/Square_9"
  op: "Square"
  input: "training/RMSprop/gradients/finalfc/BiasAdd_grad/BiasAddGrad"
  attr {
    key: "T"
    value {
      type: DT_FLOAT
    }
  }
}
node {
  name: "training/RMSprop/mul_28"
  op: "Mul"
  input: "training/RMSprop/sub_18"
  input: "training/RMSprop/Square_9"
  attr {
    key: "T"
    value {
      type: DT_FLOAT
    }
  }
}
node {
  name: "training/RMSprop/add_18"
  op: "Add"
  input: "training/RMSprop/mul_27"
  input: "training/RMSprop/mul_28"
  attr {
    key: "T"
    value {
      type: DT_FLOAT
    }
  }
}
node {
  name: "training/RMSprop/Assign_18"
  op: "Assign"
  input: "training/RMSprop/Variable_9"
  input: "training/RMSprop/add_18"
  attr {
    key: "T"
    value {
      type: DT_FLOAT
    }
  }
  attr {
    key: "_class"
    value {
      list {
        s: "loc:@training/RMSprop/Variable_9"
      }
    }
  }
  attr {
    key: "use_locking"
    value {
      b: true
    }
  }
  attr {
    key: "validate_shape"
    value {
      b: true
    }
  }
}
node {
  name: "training/RMSprop/mul_29"
  op: "Mul"
  input: "RMSprop/lr/read"
  input: "training/RMSprop/gradients/finalfc/BiasAdd_grad/BiasAddGrad"
  attr {
    key: "T"
    value {
      type: DT_FLOAT
    }
  }
}
node {
  name: "training/RMSprop/Const_18"
  op: "Const"
  attr {
    key: "dtype"
    value {
      type: DT_FLOAT
    }
  }
  attr {
    key: "value"
    value {
      tensor {
        dtype: DT_FLOAT
        tensor_shape {
        }
        float_val: 0.0
      }
    }
  }
}
node {
  name: "training/RMSprop/Const_19"
  op: "Const"
  attr {
    key: "dtype"
    value {
      type: DT_FLOAT
    }
  }
  attr {
    key: "value"
    value {
      tensor {
        dtype: DT_FLOAT
        tensor_shape {
        }
        float_val: inf
      }
    }
  }
}
node {
  name: "training/RMSprop/clip_by_value_9/Minimum"
  op: "Minimum"
  input: "training/RMSprop/add_18"
  input: "training/RMSprop/Const_19"
  attr {
    key: "T"
    value {
      type: DT_FLOAT
    }
  }
}
node {
  name: "training/RMSprop/clip_by_value_9"
  op: "Maximum"
  input: "training/RMSprop/clip_by_value_9/Minimum"
  input: "training/RMSprop/Const_18"
  attr {
    key: "T"
    value {
      type: DT_FLOAT
    }
  }
}
node {
  name: "training/RMSprop/Sqrt_9"
  op: "Sqrt"
  input: "training/RMSprop/clip_by_value_9"
  attr {
    key: "T"
    value {
      type: DT_FLOAT
    }
  }
}
node {
  name: "training/RMSprop/add_19/y"
  op: "Const"
  attr {
    key: "dtype"
    value {
      type: DT_FLOAT
    }
  }
  attr {
    key: "value"
    value {
      tensor {
        dtype: DT_FLOAT
        tensor_shape {
        }
        float_val: 9.99999993922529e-09
      }
    }
  }
}
node {
  name: "training/RMSprop/add_19"
  op: "Add"
  input: "training/RMSprop/Sqrt_9"
  input: "training/RMSprop/add_19/y"
  attr {
    key: "T"
    value {
      type: DT_FLOAT
    }
  }
}
node {
  name: "training/RMSprop/truediv_9"
  op: "RealDiv"
  input: "training/RMSprop/mul_29"
  input: "training/RMSprop/add_19"
  attr {
    key: "T"
    value {
      type: DT_FLOAT
    }
  }
}
node {
  name: "training/RMSprop/sub_19"
  op: "Sub"
  input: "finalfc/bias/read"
  input: "training/RMSprop/truediv_9"
  attr {
    key: "T"
    value {
      type: DT_FLOAT
    }
  }
}
node {
  name: "training/RMSprop/Assign_19"
  op: "Assign"
  input: "finalfc/bias"
  input: "training/RMSprop/sub_19"
  attr {
    key: "T"
    value {
      type: DT_FLOAT
    }
  }
  attr {
    key: "_class"
    value {
      list {
        s: "loc:@finalfc/bias"
      }
    }
  }
  attr {
    key: "use_locking"
    value {
      b: true
    }
  }
  attr {
    key: "validate_shape"
    value {
      b: true
    }
  }
}
node {
  name: "training/group_deps"
  op: "NoOp"
  input: "^loss/mul"
  input: "^metrics/acc/Mean"
  input: "^training/RMSprop/Assign"
  input: "^training/RMSprop/AssignAdd"
  input: "^training/RMSprop/Assign_1"
  input: "^training/RMSprop/Assign_10"
  input: "^training/RMSprop/Assign_11"
  input: "^training/RMSprop/Assign_12"
  input: "^training/RMSprop/Assign_13"
  input: "^training/RMSprop/Assign_14"
  input: "^training/RMSprop/Assign_15"
  input: "^training/RMSprop/Assign_16"
  input: "^training/RMSprop/Assign_17"
  input: "^training/RMSprop/Assign_18"
  input: "^training/RMSprop/Assign_19"
  input: "^training/RMSprop/Assign_2"
  input: "^training/RMSprop/Assign_3"
  input: "^training/RMSprop/Assign_4"
  input: "^training/RMSprop/Assign_5"
  input: "^training/RMSprop/Assign_6"
  input: "^training/RMSprop/Assign_7"
  input: "^training/RMSprop/Assign_8"
  input: "^training/RMSprop/Assign_9"
}
node {
  name: "IsVariableInitialized_10"
  op: "IsVariableInitialized"
  input: "RMSprop/lr"
  attr {
    key: "_class"
    value {
      list {
        s: "loc:@RMSprop/lr"
      }
    }
  }
  attr {
    key: "dtype"
    value {
      type: DT_FLOAT
    }
  }
}
node {
  name: "IsVariableInitialized_11"
  op: "IsVariableInitialized"
  input: "RMSprop/rho"
  attr {
    key: "_class"
    value {
      list {
        s: "loc:@RMSprop/rho"
      }
    }
  }
  attr {
    key: "dtype"
    value {
      type: DT_FLOAT
    }
  }
}
node {
  name: "IsVariableInitialized_12"
  op: "IsVariableInitialized"
  input: "RMSprop/decay"
  attr {
    key: "_class"
    value {
      list {
        s: "loc:@RMSprop/decay"
      }
    }
  }
  attr {
    key: "dtype"
    value {
      type: DT_FLOAT
    }
  }
}
node {
  name: "IsVariableInitialized_13"
  op: "IsVariableInitialized"
  input: "RMSprop/iterations"
  attr {
    key: "_class"
    value {
      list {
        s: "loc:@RMSprop/iterations"
      }
    }
  }
  attr {
    key: "dtype"
    value {
      type: DT_INT64
    }
  }
}
node {
  name: "IsVariableInitialized_14"
  op: "IsVariableInitialized"
  input: "training/RMSprop/Variable"
  attr {
    key: "_class"
    value {
      list {
        s: "loc:@training/RMSprop/Variable"
      }
    }
  }
  attr {
    key: "dtype"
    value {
      type: DT_FLOAT
    }
  }
}
node {
  name: "IsVariableInitialized_15"
  op: "IsVariableInitialized"
  input: "training/RMSprop/Variable_1"
  attr {
    key: "_class"
    value {
      list {
        s: "loc:@training/RMSprop/Variable_1"
      }
    }
  }
  attr {
    key: "dtype"
    value {
      type: DT_FLOAT
    }
  }
}
node {
  name: "IsVariableInitialized_16"
  op: "IsVariableInitialized"
  input: "training/RMSprop/Variable_2"
  attr {
    key: "_class"
    value {
      list {
        s: "loc:@training/RMSprop/Variable_2"
      }
    }
  }
  attr {
    key: "dtype"
    value {
      type: DT_FLOAT
    }
  }
}
node {
  name: "IsVariableInitialized_17"
  op: "IsVariableInitialized"
  input: "training/RMSprop/Variable_3"
  attr {
    key: "_class"
    value {
      list {
        s: "loc:@training/RMSprop/Variable_3"
      }
    }
  }
  attr {
    key: "dtype"
    value {
      type: DT_FLOAT
    }
  }
}
node {
  name: "IsVariableInitialized_18"
  op: "IsVariableInitialized"
  input: "training/RMSprop/Variable_4"
  attr {
    key: "_class"
    value {
      list {
        s: "loc:@training/RMSprop/Variable_4"
      }
    }
  }
  attr {
    key: "dtype"
    value {
      type: DT_FLOAT
    }
  }
}
node {
  name: "IsVariableInitialized_19"
  op: "IsVariableInitialized"
  input: "training/RMSprop/Variable_5"
  attr {
    key: "_class"
    value {
      list {
        s: "loc:@training/RMSprop/Variable_5"
      }
    }
  }
  attr {
    key: "dtype"
    value {
      type: DT_FLOAT
    }
  }
}
node {
  name: "IsVariableInitialized_20"
  op: "IsVariableInitialized"
  input: "training/RMSprop/Variable_6"
  attr {
    key: "_class"
    value {
      list {
        s: "loc:@training/RMSprop/Variable_6"
      }
    }
  }
  attr {
    key: "dtype"
    value {
      type: DT_FLOAT
    }
  }
}
node {
  name: "IsVariableInitialized_21"
  op: "IsVariableInitialized"
  input: "training/RMSprop/Variable_7"
  attr {
    key: "_class"
    value {
      list {
        s: "loc:@training/RMSprop/Variable_7"
      }
    }
  }
  attr {
    key: "dtype"
    value {
      type: DT_FLOAT
    }
  }
}
node {
  name: "IsVariableInitialized_22"
  op: "IsVariableInitialized"
  input: "training/RMSprop/Variable_8"
  attr {
    key: "_class"
    value {
      list {
        s: "loc:@training/RMSprop/Variable_8"
      }
    }
  }
  attr {
    key: "dtype"
    value {
      type: DT_FLOAT
    }
  }
}
node {
  name: "IsVariableInitialized_23"
  op: "IsVariableInitialized"
  input: "training/RMSprop/Variable_9"
  attr {
    key: "_class"
    value {
      list {
        s: "loc:@training/RMSprop/Variable_9"
      }
    }
  }
  attr {
    key: "dtype"
    value {
      type: DT_FLOAT
    }
  }
}
node {
  name: "init_1"
  op: "NoOp"
  input: "^RMSprop/decay/Assign"
  input: "^RMSprop/iterations/Assign"
  input: "^RMSprop/lr/Assign"
  input: "^RMSprop/rho/Assign"
  input: "^training/RMSprop/Variable/Assign"
  input: "^training/RMSprop/Variable_1/Assign"
  input: "^training/RMSprop/Variable_2/Assign"
  input: "^training/RMSprop/Variable_3/Assign"
  input: "^training/RMSprop/Variable_4/Assign"
  input: "^training/RMSprop/Variable_5/Assign"
  input: "^training/RMSprop/Variable_6/Assign"
  input: "^training/RMSprop/Variable_7/Assign"
  input: "^training/RMSprop/Variable_8/Assign"
  input: "^training/RMSprop/Variable_9/Assign"
}
node {
  name: "strided_slice/stack"
  op: "Const"
  attr {
    key: "dtype"
    value {
      type: DT_INT32
    }
  }
  attr {
    key: "value"
    value {
      tensor {
        dtype: DT_INT32
        tensor_shape {
          dim {
            size: 1
          }
        }
        int_val: 0
      }
    }
  }
}
node {
  name: "strided_slice/stack_1"
  op: "Const"
  attr {
    key: "dtype"
    value {
      type: DT_INT32
    }
  }
  attr {
    key: "value"
    value {
      tensor {
        dtype: DT_INT32
        tensor_shape {
          dim {
            size: 1
          }
        }
        int_val: 1
      }
    }
  }
}
node {
  name: "strided_slice/stack_2"
  op: "Const"
  attr {
    key: "dtype"
    value {
      type: DT_INT32
    }
  }
  attr {
    key: "value"
    value {
      tensor {
        dtype: DT_INT32
        tensor_shape {
          dim {
            size: 1
          }
        }
        int_val: 1
      }
    }
  }
}
node {
  name: "strided_slice"
  op: "StridedSlice"
  input: "finalfc/Softmax"
  input: "strided_slice/stack"
  input: "strided_slice/stack_1"
  input: "strided_slice/stack_2"
  attr {
    key: "Index"
    value {
      type: DT_INT32
    }
  }
  attr {
    key: "T"
    value {
      type: DT_FLOAT
    }
  }
  attr {
    key: "begin_mask"
    value {
      i: 0
    }
  }
  attr {
    key: "ellipsis_mask"
    value {
      i: 0
    }
  }
  attr {
    key: "end_mask"
    value {
      i: 0
    }
  }
  attr {
    key: "new_axis_mask"
    value {
      i: 0
    }
  }
  attr {
    key: "shrink_axis_mask"
    value {
      i: 1
    }
  }
}
node {
  name: "k2tfout_0"
  op: "Identity"
  input: "strided_slice"
  attr {
    key: "T"
    value {
      type: DT_FLOAT
    }
  }
}
versions {
  producer: 27
}
